otherTasks/TimeSeqPrediction/model.pth (torch_old, 130694 bytes, 9 tensors)

lstm1.weight_ih f4 [204, 1]
0	0x3d81bebf	0.0633521
1	0x3e341e29	0.1758963
2	0xbe9d0503	-0.30667886
3	0x3d2ca258	0.04214701
4	0x3ae075ed	0.0017124988
5	0xbd85f6cf	-0.06541216
6	0xbe671c24	-0.22569329
7	0xbd690a2a	-0.05689446
8	0x3d21c1a2	0.039491303
9	0xbe029ea4	-0.12755829
10	0x3d974efc	0.07388112
11	0xbd77a5e9	-0.06046096
12	0xbdb14042	-0.08654834
13	0x3cf16123	0.029465264
14	0xbf3e1c08	-0.7426152
15	0xbde12c9e	-0.10994838
16	0x3d7c7496	0.061634623
17	0x3e53c1b7	0.20679365
18	0xbc1ce67f	-0.009576439
19	0xbe51c005	-0.20483406
20	0xbda77863	-0.08177259
21	0x3ed203b0	0.41018438
22	0x3cead6e1	0.028666915
23	0x3e4b520b	0.19855516
24	0xbe7fcbfc	-0.24980158
25	0x3e779751	0.24178816
26	0x3e4bc672	0.1989992
27	0xbe7dc976	-0.24783882
28	0x3d093724	0.03349985
29	0x3ea01e12	0.31272942
30	0x3dc151c7	0.09439426
31	0x3e58bb3f	0.21165179
32	0x3e598c02	0.21244815
33	0xbe3c89be	-0.1841192
34	0xbc410e2d	-0.011783165
35	0xbd74968b	-0.05971388
36	0x3ddc91b5	0.10769979
37	0x3e96946d	0.29410115
38	0xbdd47fcd	-0.103759386
39	0x3e34ebdd	0.176681
40	0xbe15c0eb	-0.14624374
41	0xbe4f81e3	-0.20264392
42	0x3d8ebdfe	0.06969832
43	0xbea7fe3e	-0.3281116
44	0xbe2cb347	-0.16865264
45	0xbefaf4ff	-0.49015042
46	0x3e5d2ec3	0.2159987
47	0xbd0805e6	-0.03320875
48	0x3d19cf0e	0.03755098
49	0xbdc28307	-0.09497648
50	0x3e054d63	0.13017802
51	0x3e31ab26	0.17350444
52	0x3dd5c4c0	0.10437918
53	0x3cd60d86	0.026129495
54	0x3e192df6	0.14958939
55	0xbcf99316	-0.030465644
56	0xbd8d83dc	-0.06909916
57	0xbdc40f09	-0.0957318
58	0xbe50e7d7	-0.2040094
59	0xbd44e078	-0.048065633
60	0x3c19ffe4	0.009399388
61	0x3dd9890e	0.10621844
62	0xbdb4aa1e	-0.0882151
63	0x3daf39ed	0.0855597
64	0x3de4fd96	0.1118118
65	0x3c056386	0.008141404
66	0xbd4372b9	-0.04771683
67	0x3d9a9d89	0.07549579
68	0x3e136c5c	0.14396805
69	0x3e23eec9	0.16009058
70	0xbe1cda03	-0.1531754
71	0xbdc7a88c	-0.09748945
72	0x3dbdee10	0.092739224
73	0x3e43b3f4	0.19111615
74	0x3e3702c1	0.17872144
75	0x3e3de5d7	0.18544708
76	0x3dfcce0c	0.12343988
77	0xbda16410	-0.078804135
78	0xbd067f4b	-0.03283624
79	0xbd630ce2	-0.055432208
80	0xbda5cb6a	-0.08095439
81	0x3e41e475	0.18934806
82	0x3e31dbab	0.17368953
83	0xbe160af8	-0.14652622
84	0xbcbcdd25	-0.023054669
85	0x3ca8a1b9	0.020584928
86	0x3b67958a	0.0035336935
87	0x3cb1555b	0.021647146
88	0x3ded241b	0.11579152
89	0xbdee72e5	-0.11643008
90	0x3d8f71f5	0.070041575
91	0x3caed6e7	0.021342708
92	0x3d3393a2	0.043841965
93	0x3da36bf4	0.07979575
94	0xbe4e8dff	-0.20171355
95	0xbe066e67	-0.13128053
96	0xbc1c32f5	-0.0095336335
97	0x3d95973b	0.073042355
98	0xbe1a1965	-0.1504875
99	0xbd811fad	-0.0630487
100	0x3da3bf68	0.07995492
101	0x3d93bef3	0.07214155
102	0xbe3f1fa9	-0.18664421
103	0x3d4cbd5c	0.049985275
104	0xbe762017	-0.24035679
105	0xbe0795c7	-0.1324073
106	0xbe4f5876	-0.20248589
107	0xbe5592c3	-0.20856766
108	0xbe001335	-0.12507327
109	0x3e2309b2	0.15921667
110	0xbe38ce5b	-0.18047468
111	0x3e67d174	0.22638494
112	0xbe619d4c	-0.2203266
113	0x3e92e7b2	0.28692394
114	0x3e08b39b	0.13349764
115	0xbe8699c0	-0.26289177
116	0x3ded30aa	0.115815476
117	0xbdea67af	-0.11445557
118	0x3e0064de	0.12538478
119	0xbd598501	-0.053105358
120	0x3e1b1cc2	0.15147689
121	0xbde5d08c	-0.11221418
122	0xbe2fc21a	-0.17163888
123	0x3e5f2427	0.21791135
124	0xbe6657ad	-0.22494383
125	0xbe2dc292	-0.16968754
126	0xbe0deeaa	-0.13860574
127	0xbe21b222	-0.15790609
128	0xbe01895b	-0.12650053
129	0xbe7b7e6a	-0.24559942
130	0xbe15a8d1	-0.1461518
131	0x3e5d4f51	0.21612288
132	0xbe529d22	-0.20567754
133	0x3d95c11a	0.07312222
134	0x3ed971ac	0.42469537
135	0xbde4b02a	-0.11166413
136	0xbdbb044d	-0.0913168
137	0xbdd5e210	-0.104435086
138	0x3e355e9f	0.17711876
139	0x3e49c250	0.1970303
140	0x3e7d353e	0.24727342
141	0x3e6a8180	0.22900963
142	0x3e6169be	0.22012994
143	0xbded7ac5	-0.11595682
144	0xbe3561b7	-0.17713057
145	0x3dc36c41	0.09542132
146	0x3e269838	0.16269004
147	0xbe509de4	-0.2037273
148	0xbe453f13	-0.19262342
149	0xbe4e55ff	-0.20149992
150	0xbe336ab3	-0.17521171
151	0xbe5b2682	-0.21401408
152	0x3bd9517f	0.0066320295
153	0x3e16fb7b	0.1474437
154	0x3e3d93ec	0.18513459
155	0xbea08236	-0.31349343
156	0x3e6e35e2	0.23262742
157	0xbd2a9178	-0.041642636
158	0xbe11cc20	-0.14238024
159	0xbe8d2c15	-0.27572694
160	0xbe6c3104	-0.23065573
161	0x3c38ccf2	0.0112793315
162	0xbe9a3b34	-0.30123293
163	0xbb8b0e7f	-0.0042436714
164	0xbd52e5f8	-0.051488847
165	0x3dafaf61	0.08578373
166	0x3d6904ce	0.056889348
167	0xbf17803d	-0.5918005
168	0xbe798924	-0.24368721
169	0x3ca5d1aa	0.020241577
170	0x3e7e96f1	0.24862267
171	0x3d0dfa78	0.034662694
172	0xbc3bb77a	-0.011457318
173	0xbdb399ad	-0.08769546
174	0x3e0ad258	0.13556802
175	0x3e1c6519	0.1527294
176	0x3db76f20	0.08956742
177	0xbe93fd69	-0.28904274
178	0x3eb6eba1	0.35726646
179	0xbcf11a11	-0.029431375
180	0xbdf4abf6	-0.119468614
181	0x3dcfdb70	0.10149276
182	0x3ed8e32e	0.42360824
183	0x3e49cc4f	0.19706844
184	0x3e3c29ef	0.18375371
185	0x3eb65271	0.35609773
186	0xbe1d2ba1	-0.15348674
187	0x3d617dd8	0.055051655
188	0xbd214d70	-0.03938049
189	0x3e95a2b9	0.2922571
190	0x3e9da84e	0.3079247
191	0xbda3e9d6	-0.08003585
192	0x3d270a63	0.04078139
193	0xbe28113b	-0.16412823
194	0xbe6b9b18	-0.23008382
195	0xbbacb18b	-0.005270188
196	0xbe8994ff	-0.26871487
197	0xbd181496	-0.037129007
198	0xbf053fd4	-0.5205052
199	0x3df55d72	0.11980714
200	0xbdf4d550	-0.11954749
201	0x3e56c0d3	0.20971994
202	0xbe4edd3f	-0.20201586
203	0xbdc313f5	-0.09525291

lstm1.weight_hh f4 [204, 51]
0	0xbd716b34	-0.058940127
1	0x3ddd19ec	0.1079596
2	0xbcecd495	-0.02890996
3	0x3ddc47fb	0.10755917
4	0x3d20a958	0.039224
5	0x3daa40ee	0.083131656
6	0x3baa7877	0.005202349
7	0xbd4c9441	-0.049946073
8	0x3d11dce9	0.035611067
9	0xbdfeb67b	-0.12437149
10	0xbb235cb5	-0.0024927084
11	0x39859798	0.00025480683
12	0xbda887bd	-0.08229015
13	0xbdb2e706	-0.087354705
14	0x3dc776e1	0.09739471
15	0xbda4ba9b	-0.08043405
16	0xbcf67b25	-0.030088017
17	0x3e075f43	0.13219933
18	0x3d7cd21f	0.061723825
19	0x3d57d95c	0.052697524
20	0xbd74aa8a	-0.05973295
21	0x3d55c6af	0.052191433
22	0xbd9201c0	-0.0712924
23	0xbd45201b	-0.04812632
24	0xbc8f1808	-0.017467514
25	0xbd09ff0d	-0.0336905
26	0xbc4d9cd1	-0.012549595
27	0x3e1eb1de	0.15497538
28	0x3c96c515	0.018404523
29	0x3df059b2	0.11735858
30	0x3dc3ae67	0.09554749
31	0xbd8581f7	-0.065189295
32	0x3d9b50c7	0.075837664
33	0xbd68d3f9	-0.056842778
34	0xbd77c304	-0.060488716
35	0x3d091da5	0.033475537
36	0x3d6acd55	0.057324726
37	0x3de2ce03	0.1107445
38	0xbde7129e	-0.11282848
39	0x3bf3bd15	0.007438312
40	0x3d1b5853	0.03792603
41	0xbdbcddc2	-0.092219844
42	0x3daecc4a	0.08535059
43	0xbe501270	-0.20319533
44	0xbcfd2c1e	-0.030904826
45	0xbb9b1c63	-0.0047336086
46	0xbdac1cd7	-0.08403938
47	0x3db528cb	0.08845671
48	0x3dbc2ce6	0.09188251
49	0x3b3e99e1	0.0029083418
50	0xbd854169	-0.065066166
51	0xbd339156	-0.043839775
52	0xbe144ec5	-0.14483173
53	0x3d8a4c59	0.067528434
54	0xbd6dea32	-0.058084674
55	0xbdbc29e6	-0.09187679
56	0xbda11a4e	-0.07866345
57	0x3db6b5ce	0.08921395
58	0x3da22e4a	0.07918985
59	0x3df2238f	0.118231885
60	0x3d03869e	0.032110803
61	0xbd0fddb0	-0.035123527
62	0xbd52501d	-0.051345933
63	0x3d9bb72e	0.07603298
64	0x3df1bacc	0.11803207
65	0x3c16136a	0.009159902
66	0xbd044682	-0.032293804
67	0xbd9a7ef0	-0.07543743
68	0xbdfd19f0	-0.12358463
69	0x3cfd3f07	0.030913843
70	0x3ab50600	0.0013810992
71	0xbdda19b1	-0.106494315
72	0x3dd6b32b	0.10483392
73	0xbdad4c4e	-0.084618196
74	0xbc4cc56e	-0.012498243
75	0x3d4511a4	0.048112527
76	0xbd21c06f	-0.03949016
77	0xbdc01972	-0.09379853
78	0xbde2b2fd	-0.110692956
79	0x3deef5ab	0.11667951
80	0x3b8ad974	0.004237348
81	0x3dfc2a38	0.1231274
82	0xbd097ed7	-0.03356823
83	0x3d15bf14	0.03655918
84	0x3cb94e40	0.02262032
85	0x3b946fab	0.0045299134
86	0xbda70fa4	-0.0815728
87	0x3d34d7a5	0.044150967
88	0x3d48f25e	0.049059264
89	0xbc716b06	-0.014734989
90	0xbcd8ad0a	-0.026449699
91	0xbdb94f40	-0.09048319
92	0x3e11c4a3	0.14235167
93	0xbdebd4d3	-0.115152024
94	0x3c2aa849	0.010416099
95	0xbcc68b91	-0.024236472
96	0xbd8eebc2	-0.06978561
97	0x3cf825ab	0.030291399
98	0xbd70b863	-0.058769595
99	0xbbb23e2d	-0.005439541
100	0x3cfe1a11	0.031018289
101	0xbde754b3	-0.11295452
102	0xbd646502	-0.05576039
103	0x3de5a7f1	0.11213673
104	0x3bfa9041	0.007646591
105	0xbd93b144	-0.07211545
106	0xbe35af9e	-0.17742774
107	0x3d049e01	0.032377247
108	0x3c44421d	0.011978653
109	0xbde1c322	-0.11023547
110	0x3d0beac5	0.03415944
111	0x3d6bdcba	0.057583548
112	0xbe104dfa	-0.14092246
113	0x3d3aa1a3	0.045564305
114	0x3defa487	0.11701303
115	0xbd317019	-0.043319795
116	0x3d5042c4	0.050844923
117	0x3d8b05c4	0.06788209
118	0xbd0defa6	-0.034652375
119	0xbd4f7efc	-0.05065821
120	0x3e1723d2	0.14759758
121	0x3e2679a3	0.16257338
122	0x3df6277c	0.1201925
123	0x3d8e2578	0.0694074
124	0xbd7d1d66	-0.061795615
125	0xbe04347c	-0.12910646
126	0xbe3c5c19	-0.18394507
127	0xbe38262e	-0.17983314
128	0x3db55702	0.08854486
129	0x3e06da7e	0.13169286
130	0xbe14baef	-0.14524435
131	0x3de1b8a1	0.11021543
132	0x3d15b89d	0.036553014
133	0x3e4badbb	0.19890492
134	0x3e3512c0	0.17682934
135	0x3e18cc27	0.14921628
136	0xbd96444a	-0.07337244
137	0xbdad54fd	-0.08463476
138	0x3e3fc2df	0.18726681
139	0x3e117276	0.1420382
140	0xbda86836	-0.08223002
141	0x3e3653ea	0.17805448
142	0x3dd84cb2	0.105615035
143	0x3dfe11b7	0.124057226
144	0xbe0df983	-0.13864712
145	0x3c20a4d2	0.009804921
146	0xbdbec144	-0.09314206
147	0x3df8565d	0.121258475
148	0xbda40182	-0.080081
149	0x3da69385	0.08133606
150	0xbd097863	-0.033562075
151	0x3daebad0	0.085317254
152	0x3a28ad74	0.0006434538
153	0x3d8b6e3e	0.068081364
154	0xbdd5d786	-0.104414985
155	0x3d02dda9	0.031949673
156	0xbdaa4291	-0.08313478
157	0xbe167198	-0.1469177
158	0xbddc19ba	-0.107470945
159	0x3dfb7506	0.1227818
160	0x3d836de1	0.06417442
161	0x3e10a3be	0.14124963
162	0x3dc62221	0.09674478
163	0xbdfd6dff	-0.12374496
164	0xbdd95674	-0.10612193
165	0x3aa9dbb8	0.0012959158
166	0xbdbbba67	-0.09166413
167	0x3d7bf356	0.06151136
168	0xbd9fe62b	-0.07807573
169	0xbd8a0edf	-0.06741118
170	0xbe08ebbe	-0.13371179
171	0xbda0cec7	-0.0785194
172	0x3e354449	0.1770183
173	0x3df846d2	0.12122883
174	0x3da33319	0.079687305
175	0x3dccbbe9	0.099967785
176	0x3df35b1f	0.11882614
177	0xbd0c173b	-0.03420184
178	0x3d4021df	0.046907302
179	0x3e020408	0.1269685
180	0x3d57bb04	0.052668586
181	0x3e19c8c4	0.15017992
182	0x3d6e2986	0.05814507
183	0x3db7b9e0	0.08971
184	0xbd160b59	-0.036631916
185	0x3d4f7675	0.05065008
186	0x3d589322	0.05287469
187	0xbcbc4750	-0.022983223
188	0xbd7e42e9	-0.06207553
189	0xbda856ac	-0.08219656
190	0xbddc2c75	-0.10750667
191	0x3dc11970	0.0942868
192	0x3dbe9051	0.0930487
193	0xbc514bc0	-0.012774408
194	0xbd24522e	-0.040117435
195	0x3dcb7181	0.099337585
196	0x3d2ae930	0.04172629
197	0x3d05349f	0.032520887
198	0xbc483b8c	-0.012221228
199	0x3e029747	0.1275302
200	0x3d62a8f0	0.055336893
201	0xbe0d3064	-0.13787991
202	0x3e1121f4	0.14173108
203	0x3dbb45ee	0.091441974
204	0xbd967984	-0.07347396
205	0x3deb2bdf	0.11482977
206	0xbdb79d9a	-0.08965607
207	0xbd7a0f06	-0.061049484
208	0x3dabe7ae	0.08393799
209	0x3c1e3b00	0.009657621
210	0xbdba8949	-0.09108216
211	0xbdf70fd4	-0.12063566
212	0xbd13616f	-0.03598159
213	0xbd591dce	-0.05300694
214	0xbc90c4ab	-0.017671904
215	0x3e06fc63	0.13182215
216	0x3d9962e7	0.07489567
217	0xbe050be9	-0.12992825
218	0xbc5ed8b9	-0.013601475
219	0x3e10e352	0.14149216
220	0x3db4b11e	0.08822845
221	0xbe23eb86	-0.16007814
222	0x3c2b8d9c	0.010470774
223	0xbd0ea406	-0.034824394
224	0x3c0132f3	0.007885682
225	0x3d899eac	0.067197174
226	0xbe090b73	-0.13383274
227	0x3c9e8a82	0.019353155
228	0x3dea168c	0.11430082
229	0xbd431137	-0.04762384
230	0xbe066ca6	-0.13127384
231	0x3d0fa595	0.03507002
232	0x3c125340	0.008930981
233	0xbdab052a	-0.08350594
234	0x3d1f5616	0.038900457
235	0xbd818e94	-0.06326023
236	0xbda21729	-0.07914574
237	0xbd838bdd	-0.06423161
238	0xbd1c6ee5	-0.038191695
239	0x3d9e4383	0.077277206
240	0xbd97e330	-0.074163795
241	0x3e298a76	0.16556725
242	0xbd449b29	-0.047999535
243	0x3d9544fb	0.072885476
244	0x3c30dd03	0.010794881
245	0xbd31dbea	-0.043422617
246	0x3d96cf60	0.073637724
247	0x3caf268b	0.021380683
248	0x3d642f6b	0.055709284
249	0x3e24b193	0.16083364
250	0xbe062914	-0.13101608
251	0x3e0646b9	0.13112916
252	0xbd2b1ed8	-0.04177746
253	0x3db1a884	0.0867472
254	0xbd68d8a5	-0.056847233
255	0xbd94b942	-0.072618976

lstm1.bias_ih f4 [204]
0	0x3e4319b9	0.19052781
1	0x3e04a290	0.12952638
2	0x3e69481b	0.22781412
3	0x3e58d89a	0.21176377
4	0x3e4759b5	0.19467814
5	0x3dbc3a29	0.09190781
6	0x3cdd3a96	0.027005475
7	0xbb4077b3	-0.0029368221
8	0x3e458f8a	0.19293037
9	0x3de158b7	0.11003249
10	0x3e1477d0	0.1449883
11	0x3e059725	0.13045938
12	0x3e257422	0.16157582
13	0x3ddf9e55	0.10918871
14	0x3e23e0e7	0.16003762
15	0x3e445f5f	0.19177006
16	0x3de1fe57	0.110348396
17	0x3d17820d	0.03698926
18	0x3e1377d0	0.14401174
19	0x3c79c295	0.015244146
20	0x3e43249d	0.19056936
21	0x3e8a13e8	0.26968312
22	0x3df246cc	0.1182991
23	0x3d38c16c	0.045106336
24	0x3ddeffce	0.108886346
25	0x3e52df4e	0.20592996
26	0x3d83a03e	0.06427048
27	0x3d81c1c0	0.06335783
28	0x3dabbb53	0.08385339
29	0x3cfde662	0.030993644
30	0x3de87c91	0.11351884
31	0xbd12b9dc	-0.03582178
32	0x3e6cf5f3	0.23140697
33	0x3db834b1	0.08994425
34	0x3e3e087d	0.18557926
35	0x3cb8dc54	0.022565998
36	0x3e30d18d	0.17267437
37	0x3e0fc2f3	0.14039211
38	0x3d5ea3f8	0.05435559
39	0x3e5ea785	0.21743591
40	0x3ce8081d	0.028324181
41	0x3d3d4e7d	0.04621743
42	0x3dc6e050	0.09710753
43	0x3e06e858	0.1317457
44	0x3dd955bd	0.106120564
45	0x3ecb4a03	0.39704904
46	0x3de7fac6	0.11327128
47	0x3e06d72a	0.13168016
48	0x3c1781d4	0.009247262
49	0x3e3dd4d5	0.1853822
50	0x3e2b3f1b	0.16723292
51	0x3d4c77d9	0.049918983
52	0xbdbba44b	-0.09162196
53	0xbbaa7a46	-0.0052025644
54	0xbe09bc00	-0.13450623
55	0xbe0e6c01	-0.13908388
56	0x3dde32e5	0.10849551
57	0x3cdf5d6f	0.027266232
58	0x3e060e44	0.1309138
59	0x3db33ba2	0.087516084
60	0xbb6219ab	-0.0034500163
61	0x3dbc77a2	0.09202506
62	0xbdaf62db	-0.08563777
63	0xbdca157a	-0.098673776
64	0xbc87aa9b	-0.016560843
65	0xbdf9a56e	-0.12189756
66	0x3e140a23	0.14456992
67	0xbdf3aaf7	-0.11897843
68	0x3e0767d1	0.13223197
69	0xbd123fbf	-0.035705324
70	0x3d25ad36	0.04044839
71	0x3e030e9b	0.1279854
72	0xbda83781	-0.082137115
73	0xbd46ef49	-0.048568044
74	0x3d70c12b	0.05877797
75	0xbd151f8a	-0.03640703
76	0x3cd54422	0.026033465
77	0x3d938620	0.07203317
78	0xbc810a0b	-0.01575186
79	0x3db6bca7	0.08922701
80	0xbd2d2305	-0.042269725
81	0x3d538c50	0.051647484
82	0x3d72eef0	0.0593099
83	0xbdf589d6	-0.11989181
84	0xbc03e9b9	-0.008051329
85	0x3d327c5e	0.043575637
86	0xbdea85fc	-0.11451337
87	0x3e0c8f11	0.1372645
88	0xbd9957ad	-0.07487426
89	0x3d9ddfac	0.07708678
90	0xbce74058	-0.028228924
91	0xbdc75f59	-0.09734983
92	0x3de5defe	0.11224173
93	0xbd89af6a	-0.06722911
94	0xba4dde11	-0.000785322
95	0xbd421c2f	-0.04739016
96	0xbe55945b	-0.20857374
97	0x3dbad658	0.09122914
98	0xbd753e91	-0.05987412
99	0x3d328045	0.04357936
100	0x3d878c68	0.06618577
101	0x3d8a3fc5	0.06750444
102	0xbba0e05d	-0.0049095587
103	0x3e18602b	0.14880435
104	0xbd30c6f1	-0.043158475
105	0xbda0ef4e	-0.07858144
106	0xb8cbff5c	-9.727359e-05
107	0x3dfcbe01	0.12340928
108	0x3e2d8235	0.16944201
109	0xbd6a3530	-0.05717963
110	0xbd9c3169	-0.07626612
111	0xbe67f4e0	-0.22652006
112	0xbddfc2d4	-0.109258324
113	0xbc3e293d	-0.011606512
114	0x3e21f200	0.15814972
115	0xbe29c435	-0.16578753
116	0xbe97b695	-0.29631487
117	0x3e3cac0d	0.18425007
118	0x3daf2086	0.08551125
119	0xbe39a1a9	-0.18128075
120	0x3cad68af	0.021168081
121	0x3e14f8c2	0.14548019
122	0x3dda8966	0.10670738
123	0x3d9e068d	0.07716093
124	0xbdb37efb	-0.08764454
125	0xbdbf19e4	-0.0933111
126	0x3d266270	0.04062122
127	0xbe348c23	-0.17631583
128	0xbdd2e697	-0.10297888
129	0x3e17e010	0.14831567
130	0x3afbed3a	0.0019220479
131	0x3e216db7	0.15764509
132	0xbe2f098a	-0.17093483
133	0x3da0d0f7	0.07852357
134	0x3e2cdafd	0.16880412
135	0x3e05db3f	0.13071917
136	0x3d018443	0.031620275
137	0xbc07fe09	-0.008300313
138	0x3e59470d	0.2121851
139	0x3ce6944c	0.028146885
140	0xbd46cae5	-0.04853334
141	0xbcd6fbbc	-0.026243083
142	0xbdca25b1	-0.0987047
143	0x3dfd5763	0.12370183
144	0xbd155c0a	-0.03646473
145	0xbe288496	-0.16456828
146	0xbd218a44	-0.0394385
147	0x3e86c67e	0.26323313
148	0xbe409159	-0.18805446
149	0x3d9cadd9	0.07650346
150	0xbb8b38d7	-0.004248719
151	0x3c78a66e	0.015176399
152	0x3e2d039b	0.16895907
153	0x3e3a8716	0.18215594
154	0x3d951179	0.07278723
155	0x3d54c21c	0.05194293
156	0x3dc1086e	0.09425436
157	0x3e3b74dd	0.18306299
158	0x3da1093e	0.07863091
159	0x3affc643	0.0019514043
160	0x3dec1b6e	0.11528669
161	0x3a54b97a	0.00081147964
162	0x3e72f22f	0.23725198
163	0x3e038e4f	0.12847255
164	0x3dc80fd0	0.09768641
165	0x3d9dd438	0.07706493
166	0x3c8aad9a	0.016928483
167	0x3d1281ab	0.035768192
168	0xbc829a17	-0.015942616
169	0x3dd07785	0.101790465
170	0x3dd3f19c	0.10348818
171	0x3d12da05	0.03585245
172	0x3e408e3a	0.18804255
173	0x3e435610	0.19075799
174	0x3d387a54	0.045038536
175	0x3c2217e5	0.009893392
176	0x3d962bec	0.07332596
177	0x3a45130c	0.0007517792
178	0x3e2b5766	0.16732559
179	0x3e2e34ed	0.17012377
180	0x3d7e46f4	0.062079385
181	0x3e07ea42	0.13272956
182	0x3e1e00f7	0.15430056
183	0x3e6bb5dc	0.23018593
184	0xbcd18019	-0.025573777
185	0x3e7070f7	0.23480593
186	0xbd098704	-0.033576027
187	0xbd8d4a2d	-0.068989135
188	0x3e4af0af	0.19818376
189	0x3e72d672	0.23714617
190	0x3b22c94d	0.0024839223
191	0x3e43c23a	0.1911706
192	0x3e2cdabe	0.16880319
193	0x3e529504	0.20564657
194	0x3de73101	0.11288644
195	0x3d157137	0.036484923
196	0x3dc56a4c	0.09639415
197	0x3d627686	0.055288814
198	0x3e83a2d1	0.25710157
199	0x3c9058e0	0.017620504
200	0x3e2206d4	0.15822917
201	0x3ceeb120	0.029137194
202	0x3dd9e22a	0.106388405
203	0xbd5fef72	-0.054671712

lstm1.bias_hh f4 [204]
0	0x3c96b032	0.018394563
1	0x3d5dbf66	0.05413761
2	0x3e00c35f	0.12574528
3	0xbd113808	-0.035453826
4	0x3e215b57	0.157575
5	0x3e13d906	0.14438257
6	0xbaeeaf63	-0.0018210228
7	0x3e165863	0.14682154
8	0x3d38e8a5	0.045143742
9	0x3caa46d0	0.02078572
10	0x3dcba70a	0.099439695
11	0x3e825be9	0.25460747
12	0x3d9c2c7d	0.07625673
13	0x3bb801b7	0.005615439
14	0x3e2cbe2a	0.16869417
15	0x3d85132b	0.064977966
16	0xbd66d0b1	-0.056351367
17	0x3dc1c3de	0.09461187
18	0xbd1179ca	-0.035516538
19	0x3e4126bf	0.18862437
20	0x3df660df	0.120301954
21	0x3e4ef7d0	0.2021172
22	0xbcbc9a9a	-0.023022939
23	0x3dc4ee66	0.096157834
24	0x3d7b5f8f	0.06137043
25	0x3d5659b5	0.052331645
26	0x3d914979	0.07094092
27	0x3c066a1f	0.008204012
28	0x3c60dcb0	0.013724491
29	0x3d280d7a	0.041028477
30	0x3d8b2141	0.06793452
31	0x3e1d64c4	0.1537047
32	0x3e8d98b7	0.27655575
33	0x3ddd2f02	0.10799982
34	0xb86fb835	-5.7153597e-05
35	0x3d8f11a4	0.069857866
36	0x3e70b379	0.23505963
37	0x3da055b0	0.078288436
38	0xbce0fa04	-0.027462967
39	0x3e74973d	0.23885818
40	0x3cf950a7	0.030433966
41	0x3e493ae1	0.19651367
42	0x3e030c7b	0.1279773
43	0x3dc876f1	0.09788311
44	0x3e0d063a	0.13771906
45	0x3e252d68	0.16130602
46	0x3d6b4221	0.057436112
47	0xbcc1effe	-0.023674008
48	0x3dbb1cbb	0.09136339
49	0xbaa80686	-0.0012819327
50	0x3d394983	0.045236122
51	0xbd8af811	-0.06785596
52	0x3d2ac2a3	0.041689526
53	0xbdf3456a	-0.11878474
54	0xbdba7ce6	-0.09105854
55	0x3dae5793	0.08512797
56	0x3dd1eb83	0.102499984
57	0xbcba4069	-0.022735791
58	0xbd21452b	-0.039372604
59	0xbe00a441	-0.12562658
60	0x3dee8e6f	0.11648261
61	0x3cf529b6	0.029927116
62	0xbd2fe3ff	-0.042942043
63	0x39c44bf3	0.0003744062
64	0xbcec9f69	-0.028884606
65	0x3d13d378	0.036090344
66	0xbd9b341d	-0.07578299
67	0xbc649d99	-0.01395359
68	0x3dbdc756	0.09266536
69	0xbd30130d	-0.04298692
70	0x3db77f77	0.08959859
71	0x3d29698f	0.041360434
72	0xbe0bc48d	-0.13649197
73	0x3c9f7055	0.019462744
74	0xbc309752	-0.010778265
75	0xbdbafcbe	-0.09130238
76	0xbd6a365e	-0.057180755
77	0x3dce59b4	0.10075703
78	0x3d754020	0.059875607
79	0x3e007d29	0.12547745
80	0x3e1a3a59	0.1506132
81	0x3ce5f7a1	0.02807218
82	0x3aa82e95	0.0012831265
83	0x3d602d60	0.054730773
84	0xbd886cbf	-0.06661367
85	0x3dca86d7	0.09889
86	0x3dc6ae0e	0.09701167
87	0x3e08b841	0.13351537
88	0x3dc68491	0.09693254
89	0xbd59c0e9	-0.05316249
90	0xbdcd4726	-0.10023336
91	0xbd8834e7	-0.06650715
92	0xbdf35890	-0.11882126
93	0x3dc61b7b	0.0967321
94	0xbd56e94f	-0.052468594
95	0xbc0e1e19	-0.008674168
96	0xbdde7c25	-0.108635224
97	0x3d3762f1	0.044772092
98	0xbde86f3b	-0.113493405
99	0xbd125542	-0.03572584
100	0x3deedc0d	0.11663065
101	0xbd6ac6b6	-0.05731841
102	0xbce7036f	-0.02819988
103	0x3e266114	0.1624797
104	0x3e3ff27a	0.18744841
105	0xbe52359e	-0.20528266
106	0xbb711527	-0.003678629
107	0xbdae19e3	-0.08501031
108	0x3c678a59	0.014132106
109	0xbe11aa7f	-0.14225195
110	0x3dc4f7dd	0.09617589
111	0x3c2b1edc	0.010444369
112	0x3c8c36ca	0.01711597
113	0xbdc826d8	-0.09773034
114	0x3d646766	0.05576267
115	0xbe3536ba	-0.17696658
116	0xbd169f9a	-0.0367733
117	0x3dfc3bdd	0.123161055
118	0xbdba0eb8	-0.09084839
119	0xbd77d51d	-0.060505975
120	0x3e08dd5e	0.13365695
121	0x3e1453de	0.14485118
122	0x3e21fad7	0.15818344
123	0x3e5248af	0.20535539
124	0x3dad2ea7	0.08456164
125	0xbd9a6934	-0.07539597
126	0x3df679b1	0.120349295
127	0xbd2652db	-0.04060636
128	0xbe04a65a	-0.12954083
129	0x3dc40d60	0.095728636
130	0xbdda3df7	-0.1065635
131	0x3e7d794e	0.24753305
132	0x3cd8c48f	0.026460914
133	0x3e367d82	0.17821315
134	0x3e26d99f	0.16293953
135	0x3e3968c4	0.18106371
136	0xbdcc25ee	-0.09968172
137	0xbd7f2ccf	-0.062298592
138	0xbd2bb71d	-0.041922677
139	0x3e4c281c	0.19937176
140	0xbda9197b	-0.08256813
141	0x3d7d0ea3	0.061781537
142	0xbb6b5a7a	-0.0035912083
143	0x3e88ae02	0.26695257
144	0xbd94952f	-0.07255017
145	0xbd643186	-0.05571129
146	0xbe1fecb3	-0.15617637
147	0x3dbc50e0	0.09195113
148	0xbe3acfeb	-0.18243377
149	0x3de0feb6	0.10986082
150	0xbd81f846	-0.063461825
151	0x3dee2b3a	0.116293386
152	0x3e3707a0	0.17874002
153	0x3e28ea6b	0.16495673
154	0x3d932575	0.07184879
155	0x3d01c91b	0.03168593
156	0x3e1310bf	0.14361857
157	0x3e80386d	0.2504305
158	0xbcf4efce	-0.029899504
159	0x3d032a5f	0.03202283
160	0x3bb77ffc	0.0055999737
161	0x3dab966e	0.083783016
162	0x3e2ced53	0.16887407
163	0xbc8c4631	-0.017123314
164	0x3d7c3b78	0.06158015
165	0x3def664c	0.116894335
166	0x3e505284	0.20343977
167	0x3ad45cef	0.0016202013
168	0x3e196304	0.14979178
169	0xbd3be549	-0.04587296
170	0xbca13287	-0.019677414
171	0x3e3ca975	0.18424018
172	0x3dc1e7d2	0.09468044
173	0x3e19edf7	0.15032183
174	0x3db2110c	0.08694658
175	0x3e158f7b	0.14605515
176	0x3cf21274	0.029549815
177	0x3d947792	0.07249369
178	0x3e01457b	0.12624161
179	0x3daa87b3	0.08326664
180	0x3e732e11	0.23748042
181	0x3ddbca9e	0.107320055
182	0x3dd189fa	0.10231395
183	0x3e5e1a6e	0.2168977
184	0x3dad559f	0.084635966
185	0x3d8cc886	0.06874184
186	0xbce0961e	-0.027415331
187	0x3e0c26c2	0.1368666
188	0x3e106008	0.14099133
189	0x3db60f06	0.08889584
190	0x3e76e61a	0.24111214
191	0x3e33a3a3	0.17542891
192	0x3ea94f7f	0.33068463
193	0x3dc17d17	0.09447687
194	0x3e206a5f	0.15665577
195	0x3d4a10c7	0.049332406
196	0xbd16792f	-0.036736663
197	0x3d357ba8	0.04430738
198	0x3e924aa0	0.2857256
199	0x3d316213	0.04330642
200	0x3e150200	0.14551544
201	0x3e8233c9	0.25430134
202	0x3e1c712e	0.1527755
203	0x3e0d4a68	0.13797915

lstm2.weight_ih f4 [204, 51]
0	0xbd41f893	-0.0473562
1	0x3d1884ad	0.037235904
2	0xbd9d4c4e	-0.076805696
3	0x3d9c2759	0.076246925
4	0xbe1c6e4d	-0.15276451
5	0x3cae898a	0.021305818
6	0x3d10ef63	0.035384547
7	0x3dc7a126	0.097475335
8	0xbd515566	-0.051106833
9	0xbd252cec	-0.040326044
10	0x3dc67143	0.09689572
11	0xbd7e656e	-0.06210845
12	0x3d6ba67d	0.057531822
13	0xbe08ae7e	-0.13347813
14	0x3dab2ffc	0.08358762
15	0x3e10ce71	0.14141251
16	0xbd386d62	-0.04502619
17	0xbd3aafad	-0.045577694
18	0x3d33ddc4	0.043912664
19	0xbd7397b7	-0.05947086
20	0x3e0346dd	0.12820001
21	0x3ddedc44	0.10881856
22	0xbd34e50b	-0.044163745
23	0x3d9d2322	0.07672717
24	0x3d40e685	0.04709484
25	0xbbba6a93	-0.005688974
26	0x3c4d323d	0.012524185
27	0xbd694475	-0.05695005
28	0xbe212ec8	-0.15740502
29	0x3dc869bc	0.09785792
30	0xbd6dd193	-0.058061194
31	0x3df828dc	0.12117168
32	0xbd3a7ea3	-0.045530926
33	0x3d65fd3a	0.0561497
34	0x3d92c765	0.07166938
35	0xbcb56eee	-0.022147622
36	0xbd4199bc	-0.047265753
37	0x3dc7ac39	0.09749646
38	0x3e2f5872	0.17123583
39	0x3cb455b9	0.022013532
40	0x3c91bb78	0.017789587
41	0x3dde53b9	0.108558126
42	0x3d19c164	0.037537947
43	0xbbe4be08	-0.0069806613
44	0x3d2744d7	0.040837135
45	0x3da1630f	0.07880222
46	0x3db1d62b	0.086834274
47	0xbe13845b	-0.14405958
48	0x3caaeea4	0.020865746
49	0x3d894a01	0.06703568
50	0x3df43d2a	0.119257286
51	0x3de518a8	0.111863434
52	0x3e1d2277	0.15345179
53	0x3e4edcf2	0.20201471
54	0xbd8d1df5	-0.068904795
55	0x3e7b1107	0.24518214
56	0x3d4ddc4d	0.050258923
57	0x3e4123a4	0.18861252
58	0xba5fd6d0	-0.00085387845
59	0x3da7c2cb	0.08191451
60	0x3cabf213	0.020989453
61	0x3dd0c744	0.10194257
62	0xbd04c10f	-0.032410678
63	0xbd05ebb9	-0.032695506
64	0xbe2beada	-0.16788808
65	0xbd24b256	-0.040209137
66	0x3e28327e	0.16425511
67	0xbe352f50	-0.1769383
68	0xbd874bbf	-0.06606244
69	0x3d41478d	0.047187377
70	0x3d608392	0.054812975
71	0x3e291e01	0.16515352
72	0x3db80d08	0.089868605
73	0x3ccad2ad	0.024758661
74	0x3d7b31fc	0.061326966
75	0x3e42cd09	0.19023527
76	0x3c9bc8ce	0.01901665
77	0x3aa04cb3	0.0012229889
78	0x3e6657e2	0.22494462
79	0x3d64a4a8	0.05582109
80	0xbda9f430	-0.08298528
81	0xbd9a89ce	-0.075458154
82	0x3e4158a4	0.1888147
83	0xbce59db6	-0.028029304
84	0x3e60a5ad	0.219382
85	0xbc8c3e00	-0.017119408
86	0xbe0903e8	-0.13380396
87	0x3e3adb0a	0.1824762
88	0x3d98165b	0.07426139
89	0xbde76ff0	-0.11300647
90	0xbe47b1d9	-0.19501437
91	0xbe2dc96e	-0.1697137
92	0x3c70f100	0.014705896
93	0x3db58ba0	0.08864522
94	0xbd90647c	-0.07050416
95	0xbe38db53	-0.18052416
96	0x3e02ae84	0.12761885
97	0xbbd0af07	-0.006368521
98	0x3dfa2666	0.12214355
99	0x3dd19e3a	0.102352574
100	0xbc181f56	-0.009284815
101	0x3ccebb61	0.025235834
102	0xbddd5596	-0.1080734
103	0x3e858d72	0.26084477
104	0xbd8aa6df	-0.067701094
105	0xbe99a320	-0.30007267
106	0xbe402be7	-0.18766747
107	0xbe7a4bbb	-0.24442951
108	0xbe0ebcc8	-0.13939202
109	0x3e08cbc0	0.13358974
110	0xbd93457d	-0.07190988
111	0xbdaf4dc7	-0.08559757
112	0xb9c2f467	-0.00037184657
113	0x3dbf9acf	0.09355699
114	0x3eeb0459	0.45901754
115	0xbea5e13f	-0.32398412
116	0xbe3721e5	-0.17884023
117	0x3dab4269	0.08362276
118	0x3de06f60	0.10958743
119	0xbd4b2cfe	-0.049603455
120	0x3e488d34	0.19585115
121	0x3e98296e	0.29719108
122	0x3e89147c	0.2677344
123	0x3ed7d66d	0.4215578
124	0xbea18543	-0.31546983
125	0xbe1b3ce7	-0.15159951
126	0x3df1f34e	0.11813985
127	0xbf1e86b3	-0.61924285
128	0xbe9d74d1	-0.30753186
129	0x3d9b356e	0.0757855
130	0xbe521b28	-0.20518172
131	0x3e8aa781	0.2708092
132	0xbe7ecd04	-0.24882895
133	0x3e603c47	0.21897994
134	0x3e9d670c	0.3074268
135	0x3e94b98b	0.29047808
136	0xbdcb6d15	-0.09932915
137	0xbe78a0f5	-0.2428015
138	0x3ed8fcbf	0.4238033
139	0x3ee76bec	0.45199525
140	0xbd78792a	-0.060662426
141	0x3f0895c2	0.5335351
142	0x3e85fd67	0.26169893
143	0x3df40318	0.119146526
144	0xbe8647fb	-0.26226792
145	0xbeefcd51	-0.4683633
146	0x3dc54113	0.096315525
147	0x3c7a1594	0.015263934
148	0xbe205129	-0.1565596
149	0x3cef7d66	0.0292346
150	0xbf188561	-0.5957852
151	0xbb904ae8	-0.004403461
152	0x3dc58cab	0.09645971
153	0x3d9a01ee	0.07519899
154	0xbd2f2d4e	-0.042767815
155	0xbc548d14	-0.012973089
156	0xbdc13355	-0.09433619
157	0x3e119647	0.14217483
158	0x3ca45f09	0.020064848
159	0x3e1eb440	0.15498447
160	0xbd8fbd76	-0.07018559
161	0xbdb83c36	-0.08995859
162	0xbdf45061	-0.119293936
163	0x3d063b8c	0.032771632
164	0xbe14ad30	-0.14519191
165	0xbdba0ebc	-0.090848416
166	0x3d86e652	0.06586899
167	0x3d11465c	0.03546749
168	0x3cc1fa09	0.023678796
169	0xbe247b98	-0.16062772
170	0xbe003143	-0.12518792
171	0xbc736711	-0.014856116
172	0xbde0bfc3	-0.10974076
173	0x3d982e21	0.074306734
174	0xbd8daae5	-0.06917361
175	0x3de09709	0.10966308
176	0x3cbb7c81	0.022886517
177	0x3e148b59	0.14506282
178	0xbcc74c0e	-0.024328258
179	0xbe007a9d	-0.12546773
180	0x3bec43ab	0.007210215
181	0x3deedd57	0.11663311
182	0xbde126e5	-0.10993747
183	0x3dd6b919	0.10484523
184	0x3de560f5	0.11200134
185	0x3db3c759	0.08778257
186	0x3dc4684d	0.09590206
187	0xbd9ba02d	-0.075989105
188	0x3d1ddaf8	0.038538903
189	0xbc939712	-0.018016372
190	0x3d31fbda	0.043453075
191	0x3c5b369a	0.013379717
192	0xbd9204fe	-0.071298584
193	0xbd48520d	-0.048906375
194	0x3da2a716	0.07942025
195	0x3da4a6af	0.08039605
196	0xbd01241b	-0.031528573
197	0xbe12dd7c	-0.14342302
198	0x3de942c7	0.1138969
199	0x3ca6f151	0.02037874
200	0x3e19a7b7	0.15005384
201	0x3e3babdd	0.1832728
202	0xbd7516cf	-0.059836205
203	0x3c01a709	0.007913359
204	0x3c85a214	0.016312636
205	0x3e2efbf8	0.17088306
206	0x3e273810	0.1632998
207	0xbe09e92c	-0.13467854
208	0x3e9dc057	0.30810806
209	0x3e467b78	0.19383037
210	0x3e27ed93	0.16399221
211	0xbd1f6d5b	-0.03892265
212	0x3de0cee2	0.1097696
213	0xbdecd5db	-0.11564227
214	0x3df4fdcf	0.11962473
215	0xbe138f93	-0.14410238
216	0xbd8ffd2d	-0.07030711
217	0x3cdfcd0b	0.027319452
218	0xbe5d3ee8	-0.21606028
219	0x3e1ea760	0.15493536
220	0xbc2e0e86	-0.01062358
221	0xbdd06f0f	-0.10177433
222	0x3d1a5ce6	0.03768625
223	0x3de7054f	0.112803094
224	0x3e31235f	0.17298649
225	0xbdaa150e	-0.08304797
226	0x3e15cf12	0.14629772
227	0x3d9d248d	0.07672987
228	0x3cb6a803	0.022296911
229	0x3dd19dcb	0.10235175
230	0xbe237f23	-0.15966468
231	0x3dc257f0	0.09489429
232	0x3e5d95c9	0.2163917
233	0xbcb00c54	-0.021490254
234	0x3dcc17f0	0.09965503
235	0x3e11e01b	0.14245646
236	0x3d7b378a	0.061332263
237	0x3dd2a91f	0.102861635
238	0xbbbecb21	-0.0058225547
239	0xbd7df2de	-0.061999194
240	0xbcb4f14b	-0.022087714
241	0x3cad5965	0.02116079
242	0xbd818538	-0.063242376
243	0xbe2b1f70	-0.16711211
244	0xbd87e546	-0.06635527
245	0x3d8c64d2	0.068551674
246	0x3d8da101	0.06915475
247	0xbc1e022d	-0.009644073
248	0xbdcb08b9	-0.09913773
249	0x3e94dce6	0.29074782
250	0xbe0f204e	-0.13977167
251	0x3e174096	0.14770731
252	0x3e2f33cf	0.17109607
253	0xbcde2150	-0.027115494
254	0x3de18b37	0.11012881
255	0x3e0251b4	0.1272648

lstm2.weight_hh f4 [204, 51]
0	0xbce78e90	-0.028266221
1	0x3d8b4093	0.06799426
2	0xbdc37bef	-0.09545123
3	0x3d46a0c9	0.04849318
4	0x3dd0e085	0.10199074
5	0xbdad6dd3	-0.08468213
6	0xbc43c342	-0.011948409
7	0xbe075b36	-0.13218388
8	0xbde07f6a	-0.10961802
9	0xbcd7c7d0	-0.026340395
10	0x3e32be11	0.17455317
11	0x3e2d8400	0.16944885
12	0x3dfe6079	0.124207444
13	0x3dbd5cef	0.09246241
14	0xbd58e8a5	-0.052956242
15	0xbdc76995	-0.09736935
16	0xbd663a33	-0.056207847
17	0x3da17ed0	0.07885516
18	0x3d4e6a45	0.050394315
19	0xbde702f3	-0.112798594
20	0x3d97599d	0.07390139
21	0xbdd02e19	-0.101650424
22	0xbd95294d	-0.07283268
23	0x3c9309c3	0.01794899
24	0x3da28d3b	0.07937094
25	0xbe3ca4e7	-0.1842228
26	0x3d11f6db	0.03563581
27	0xbd19966d	-0.037496973
28	0xbbcb2579	-0.0061995354
29	0xbd1bfa68	-0.038080603
30	0xbe058d68	-0.13042223
31	0x3dadd84f	0.08488523
32	0xbddc73e6	-0.107642934
33	0x3dac6225	0.08417157
34	0xbdef9e12	-0.117000714
35	0xbe0ba50d	-0.1363718
36	0x3d70fc31	0.05883426
37	0xbd8bdb17	-0.068288974
38	0x3dca71ec	0.0988501
39	0xbcf986ec	-0.030459844
40	0x3e0f2a81	0.13981058
41	0xbbd150da	-0.006387812
42	0x3df7b6c3	0.12095406
43	0xbd2804e2	-0.04102028
44	0x3e3e3b86	0.18577394
45	0xbd8c8bae	-0.06862579
46	0x3c0713a0	0.008244425
47	0xbe25d236	-0.1619347
48	0x3c474e84	0.012164716
49	0x3dd08ca2	0.101830736
50	0xbce1159c	-0.027476124
51	0xbe12775d	-0.14303346
52	0x3da8dbd4	0.08245054
53	0x3d7cd0d6	0.0617226
54	0x3d379044	0.044815317
55	0x3ba3b9f8	0.0049965344
56	0x3dc43b45	0.09581617
57	0xbdc09a10	-0.09404385
58	0x3d0bf837	0.034172263
59	0xbdefcc38	-0.117088735
60	0x3d4be8b8	0.049782485
61	0x3d86dc51	0.06584991
62	0x3e219bc0	0.1578207
63	0x3dcdef8e	0.10055457
64	0x3d687ca8	0.056759506
65	0x3d734e99	0.05940113
66	0xbd986287	-0.074406676
67	0xbce0a858	-0.027424023
68	0x3d28c577	0.041203942
69	0xbd817740	-0.06321573
70	0x3dbe2525	0.092844285
71	0xbde1f67d	-0.11033342
72	0xbdb6804c	-0.089111894
73	0xbc02e6f6	-0.007989636
74	0xbd3a5043	-0.0454867
75	0xbd9a1282	-0.07523061
76	0xbd9b9ae1	-0.075979
77	0xba9b8742	-0.0011865871
78	0xbd443c95	-0.047909338
79	0x3d454b02	0.048167236
80	0x3d68a577	0.056798425
81	0xbde85d5e	-0.113459334
82	0xbd8e1053	-0.06936707
83	0x3a0f6991	0.0005470748
84	0xbd96191d	-0.07329009
85	0x3d6f3285	0.05839779
86	0xbd2bc861	-0.041939143
87	0xbdc2feb8	-0.0952124
88	0x3de73ad3	0.11290517
89	0xbe451251	-0.19245268
90	0xbdf98061	-0.121826895
91	0x3df49c80	0.119439125
92	0x3d90517f	0.07046794
93	0x3e028ddb	0.12749426
94	0xbbb00c5d	-0.0053725676
95	0xbda42b08	-0.0801602
96	0x3d81e721	0.063429125
97	0xbe3c72f9	-0.18403234
98	0xbe31f304	-0.1737786
99	0x3dbab8cb	0.09117278
100	0xbd0c725b	-0.034288745
101	0xbd422758	-0.047400802
102	0x3e3fbc98	0.18724287
103	0x3eb1e1d2	0.347426
104	0xbe88e005	-0.26733413
105	0x3e436d38	0.19084632
106	0x3eb1d12c	0.34729898
107	0x3f0b6eae	0.5446576
108	0x3e3f45e9	0.18679012
109	0x3e329c41	0.17442419
110	0x3d1158b9	0.035485003
111	0x3e3c693e	0.18399522
112	0x3eabffae	0.33593506
113	0x3e940f26	0.28917807
114	0x3e12b5fe	0.14327237
115	0x3eb5e4b5	0.35526052
116	0xbd438e18	-0.047742933
117	0x3c55d29b	0.013050701
118	0x3db2ce9c	0.08730814
119	0x3e054def	0.1301801
120	0x3ea95ca9	0.33078507
121	0xbf09a3af	-0.53765386
122	0xbd68c40a	-0.056827582
123	0xbd05c34e	-0.03265696
124	0x3d6e9906	0.058251403
125	0xbc992c70	-0.018697947
126	0x3da2d0e0	0.07949996
127	0xbdbf1b1d	-0.09331343
128	0x3d243f2f	0.04009932
129	0x3e2924fa	0.16518012
130	0x3e2fbd26	0.17161998
131	0xbf4b52f1	-0.79423434
132	0x3dd7495a	0.105120376
133	0x3f2c1aab	0.6722819
134	0x3c3eef6c	0.011653762
135	0x3f13f947	0.5780224
136	0xbc90d510	-0.017679721
137	0xbd0beb7d	-0.034160126
138	0x3e2d6a8d	0.16935177
139	0x3e99583f	0.2995014
140	0x3d608e1b	0.054823022
141	0x3d95fa2a	0.07323106
142	0xbe3288b6	-0.17434964
143	0x3e83a647	0.25712797
144	0x3e844b4e	0.25838703
145	0xbed047a8	-0.4067967
146	0x3e439200	0.19098663
147	0x3db54b2d	0.08852229
148	0x3cb6f9c1	0.022335889
149	0xbefcf7f2	-0.49407917
150	0xbd8f7724	-0.07005146
151	0xbe610c08	-0.21977246
152	0x3e87b6b0	0.26506567
153	0x3de139fc	0.10997388
154	0xbdf88046	-0.12133841
155	0x3e2eb7fb	0.1706237
156	0xbc9a1a7b	-0.018811455
157	0xbb02267d	-0.0019859367
158	0x3dc8bdaa	0.098018005
159	0xbe22a0c7	-0.15881644
160	0x3d81e9d5	0.06343428
161	0x3c42da05	0.0118928
162	0xbd1ef3fe	-0.038806908
163	0x3c7c5cc0	0.015402973
164	0x3dc7b0e9	0.0975054
165	0xbdd71681	-0.10502339
166	0x3de6e59c	0.11274263
167	0xbd8ca987	-0.06868272
168	0x3bc77304	0.006086709
169	0x3dea296b	0.11433681
170	0xbbb5ff22	-0.005554096
171	0xbe092b67	-0.13395463
172	0x3e13771d	0.14400907
173	0xbced51ad	-0.02896961
174	0xbcee1dbf	-0.029066918
175	0x3d964ebc	0.07339236
176	0x3d99aba6	0.075034425
177	0x3d91c3ea	0.07117446
178	0xbdeed6b1	-0.11662043
179	0xbd102be3	-0.035198104
180	0xbde16186	-0.11004929
181	0xbe30e768	-0.17275774
182	0x3e1d03e6	0.15333518
183	0xbdfc64de	-0.123239264
184	0xbddd4b66	-0.10805397
185	0x3c7b32d3	0.015331942
186	0x3e027b47	0.12742339
187	0xbd2f8d87	-0.04285958
188	0xbde4d00c	-0.11172494
189	0xbdbf616d	-0.09344754
190	0xbdb3afbd	-0.08773754
191	0xbc1abacc	-0.00944395
192	0x3d39892c	0.045296833
193	0x3df7814b	0.120852076
194	0x3aa95379	0.0012918554
195	0xbdec210c	-0.11529741
196	0xbdbe8765	-0.09303168
197	0x3d8b634a	0.06806047
198	0xbe02cb11	-0.12772776
199	0xbd21abf1	-0.039470617
200	0xbdb74a35	-0.08949701
201	0xbc60c4a4	-0.013718758
202	0xbd56b7f4	-0.052421525
203	0x3da61a18	0.08110446
204	0x3c5f67cc	0.013635587
205	0xbd9bc746	-0.07606368
206	0xbd551ed7	-0.052031364
207	0xbbf0e6bc	-0.0073517244
208	0x3d439e25	0.04775824
209	0xbcc60f09	-0.024177091
210	0xbdbdad49	-0.09261567
211	0xbdcee440	-0.10102129
212	0xbc0c614b	-0.008568118
213	0x3dcc8c20	0.09987664
214	0x3bd6ba40	0.0065529644
215	0x3c97ecab	0.01854547
216	0xbdcae439	-0.09906811
217	0xbda51948	-0.08061463
218	0xbd8fd4ed	-0.07023034
219	0xbd240651	-0.040045086
220	0xbdbedcf7	-0.093194894
221	0xbe10e87c	-0.14151186
222	0x3d31007a	0.043213345
223	0xbdd9b999	-0.10631103
224	0x3d1139ec	0.03545563
225	0x3e032032	0.1280525
226	0x3d21d5b7	0.039510455
227	0x3d2dc1d3	0.042421173
228	0xbd9578fe	-0.07298468
229	0x3d08fea4	0.03344597
230	0xbd3d4f4e	-0.04621821
231	0xbdac7bd7	-0.08422058
232	0xbdf4c7d8	-0.1195218
233	0x3c59f44c	0.013302874
234	0xbb97467f	-0.004616558
235	0xbe0dad55	-0.13835652
236	0xbc2ccce2	-0.010546895
237	0xbc900888	-0.017582193
238	0x3d46f61e	0.04857456
239	0xbcc6319d	-0.02419358
240	0xbe180df1	-0.14849068
241	0xbdc99850	-0.098435044
242	0xbe469a67	-0.19394837
243	0x3dd4a7bf	0.103835575
244	0xbdb13ced	-0.08654199
245	0x3deeeefa	0.11666675
246	0x3d69aac8	0.057047635
247	0xba5b9efc	-0.00083778775
248	0x3d5e7b56	0.05431684
249	0xbdae5573	-0.08512392
250	0xbe0de08d	-0.1385519
251	0x3db33999	0.0875122
252	0xbd4823fa	-0.048862435
253	0xbd849f8b	-0.06475743
254	0x3dad0561	0.084482916
255	0xbde39b6e	-0.1111363

lstm2.bias_ih f4 [204]
0	0xbb1bcb51	-0.002377231
1	0x3cf40f3e	0.029792424
2	0x3e772399	0.24134673
3	0xbd88f0eb	-0.066865765
4	0x3dafbd32	0.08581008
5	0x3da11e72	0.07867135
6	0x3e903452	0.28164917
7	0xbd816c1a	-0.06319447
8	0xbd617e0b	-0.055051845
9	0xbbc7c132	-0.0060960287
10	0x3c36d4f4	0.01115917
11	0x3e017851	0.12643553
12	0x3e6cc783	0.23122983
13	0x3cc935d2	0.024561796
14	0x3ed1ccce	0.40976566
15	0xbccb6425	-0.024828026
16	0xbd121849	-0.03566769
17	0x3dfd0802	0.12355043
18	0x3e34f8d2	0.17673042
19	0x3d108b68	0.0352892
20	0x3deb7181	0.114962585
21	0x3dcac380	0.0990057
22	0x3e2b830f	0.16749214
23	0x3e1f348d	0.1554739
24	0x3d74fa93	0.05980928
25	0xbd406eb6	-0.046980582
26	0x3dd224b2	0.10260905
27	0x3d3356da	0.043784
28	0x3ee7d137	0.45276806
29	0x3e99518b	0.29945025
30	0x3c0f69a7	0.008753217
31	0x3d8d2f7b	0.06893822
32	0x3e3202de	0.17383906
33	0x3eb4b9fe	0.3529815
34	0x3c2cf902	0.010557415
35	0x3d2c681c	0.042091474
36	0x3e1fa343	0.15589623
37	0x3e3cc6c9	0.18435206
38	0x3e5b34ba	0.21406832
39	0x3e0e5546	0.13899717
40	0x3dfb5437	0.12271922
41	0x3e17c985	0.14822967
42	0x3d9b2edc	0.07577297
43	0x3ce973d3	0.028497612
44	0xbc1237a7	-0.008924401
45	0x3e292472	0.16517809
46	0x3e5e9b8b	0.21739022
47	0x3dffa1a5	0.12482003
48	0x3e0c03e6	0.13673362
49	0x3d940155	0.072268166
50	0x3e63fcfe	0.22264478
51	0x3b0ba4cf	0.002130795
52	0xbd87937b	-0.066199265
53	0xbde1bdbe	-0.110225186
54	0x3d8afc6d	0.06786428
55	0xbd26ac01	-0.04069138
56	0xbcd276b8	-0.025691375
57	0x3df11157	0.117708854
58	0xbd0f15d8	-0.03493294
59	0xbdb82351	-0.08991111
60	0x3c2b000b	0.010437022
61	0x3d0af241	0.033922438
62	0xbdb192db	-0.086705886
63	0x3d2bc3c6	0.04193475
64	0xbdb706ce	-0.08936845
65	0xbda51ad9	-0.080617614
66	0xbdcd4847	-0.100235514
67	0xbd2cd603	-0.042196285
68	0x3c941c9d	0.01808005
69	0xbdbfcf24	-0.09365681
70	0xbd9d4d2c	-0.07680735
71	0xbd963cb1	-0.07335795
72	0x3cd0fc95	0.025511065
73	0x3c424d59	0.011859261
74	0xbe0c52f3	-0.13703518
75	0xbdfb8711	-0.12281621
76	0x3d9f5fe3	0.07781961
77	0x3cdb9059	0.026802229
78	0x3da08778	0.078383386
79	0xbd1e0536	-0.03857919
80	0xbe32e5c0	-0.17470455
81	0xbe0358ad	-0.12826796
82	0x3d71f123	0.059067857
83	0xbcf9ff70	-0.03051731
84	0xbddbc769	-0.10731394
85	0xbe137fe8	-0.14404261
86	0x3d8c319a	0.06845398
87	0xba40a67e	-0.0007349028
88	0xbdee844c	-0.116463274
89	0x3c0c485a	0.008562172
90	0xbd3c6f54	-0.04600461
91	0xbd055e52	-0.032560654
92	0xbd91bfa9	-0.071166344
93	0xbd702ed0	-0.058638394
94	0xbcaf3e54	-0.021392025
95	0xbdca0d28	-0.098657906
96	0xbdb8e261	-0.09027553
97	0xbe19688c	-0.14981288
98	0x3dd6af9b	0.10482713
99	0xbdcdbd2c	-0.10045847
100	0x3de7c011	0.11315931
101	0x3dce3339	0.10068364
102	0xbd8542b4	-0.06506863
103	0x3dd2bd9e	0.10290073
104	0x3e78e36d	0.24305506
105	0x3d4a8d88	0.04945138
106	0x3e41f41e	0.1894078
107	0x3e081c24	0.13291985
108	0xbd24cdf3	-0.04023547
109	0x3e5a830a	0.2133905
110	0xbe350d42	-0.17680839
111	0x3d7aea5f	0.06125867
112	0x3df63bd7	0.12023132
113	0x3e288fd2	0.16461113
114	0x3c783a60	0.015150636
115	0x3e4c84cd	0.19972534
116	0x3e338ed8	0.1753496
117	0xbe35430d	-0.17701359
118	0x3e457bcc	0.19285506
119	0xbe2759c4	-0.16342837
120	0x3e36762c	0.17818516
121	0xbe020485	-0.12697037
122	0xbdcb3d87	-0.09923845
123	0xbe39c322	-0.18140844
124	0x3d7c01ad	0.061525036
125	0xbddf7e3f	-0.109127514
126	0xbcc48a1b	-0.023991635
127	0xbdc62187	-0.096743636
128	0xbe6bfed4	-0.23046428
129	0xbe18dde1	-0.1492839
130	0xbd917399	-0.07102127
131	0xbe89e51c	-0.2693261
132	0xbe0329c4	-0.12808901
133	0xbd1feae7	-0.03904238
134	0x3e63e855	0.22256596
135	0x3e1e3b72	0.15452364
136	0x3ca0e90c	0.019642375
137	0x3d2acfa4	0.041701928
138	0x3d540593	0.05176313
139	0x3da076a9	0.07835133
140	0xbe3e6fa7	-0.1859728
141	0xbe345311	-0.17609812
142	0xbd78bc53	-0.060726475
143	0x3cdf1f6b	0.027236661
144	0xbc04e8ba	-0.008112127
145	0xbe06b72a	-0.13155809
146	0x3dd8802a	0.1057132
147	0x3dfe23ea	0.12409194
148	0xbc326e8a	-0.010890612
149	0xbbe7bd76	-0.007072146
150	0xbdebf3b1	-0.1152109
151	0xbdeb1101	-0.114778526
152	0x3d9dab57	0.07698696
153	0x3e441c10	0.1915133
154	0x3dfeb3b0	0.124366164
155	0x3defe2a2	0.11713149
156	0x3bd5628d	0.0065119923
157	0x3d5dff1f	0.05419838
158	0x3de95162	0.11392476
159	0x3e3ab8d1	0.18234564
160	0x3cf56e7d	0.029959911
161	0x3da5064d	0.080578424
162	0x3dc79057	0.097443275
163	0x3e636977	0.222082
164	0x3ba6044c	0.00506643
165	0x3e17e25d	0.14832444
166	0x3e529307	0.20563899
167	0x3e46a72b	0.19399707
168	0xbd29a185	-0.041413803
169	0x3d758134	0.05993767
170	0x3ddf377b	0.10899254
171	0x3dd25fe2	0.102721944
172	0x3e2fdcdb	0.17174093
173	0x3db65458	0.08902806
174	0x3c42e59c	0.011895563
175	0x3d93883e	0.072037205
176	0x3d19071e	0.037360303
177	0x3e4c9b1d	0.19981046
178	0xbd709681	-0.05873728
179	0x3d053c33	0.032528114
180	0x3e059b7c	0.13047594
181	0x3eda92b2	0.42690045
182	0x3ea4a757	0.3215892
183	0xbbc80a38	-0.006104734
184	0x3dcc21ea	0.09967406
185	0x3e46b896	0.19406351
186	0x3ed6f610	0.41984606
187	0xbd02e152	-0.031953163
188	0x3dbcd865	0.092209615
189	0xbbfcb651	-0.0077121635
190	0x3e5fede3	0.2186809
191	0x3d32d0d6	0.043656193
192	0x3c664add	0.014055935
193	0x3cdc9796	0.02692775
194	0x3e218b3d	0.15775771
195	0x3dd5f70d	0.10447512
196	0xbd745bd5	-0.05965789
197	0x3d5150f4	0.051102594
198	0x3e145827	0.14486752
199	0x3e1ac8d2	0.1511567
200	0x3dacd959	0.08439893
201	0x3e329d24	0.17442757
202	0x3e7278a4	0.23678833
203	0x3daca306	0.08429532

lstm2.bias_hh f4 [204]
0	0x3e4bfe67	0.19921266
1	0x3e51d437	0.2049111
2	0x3e3e0b6d	0.18559046
3	0xbcf5eadb	-0.030019214
4	0x3e6a66a1	0.22890712
5	0x3e2037da	0.15646306
6	0x3eb18f23	0.34679517
7	0xbd01789a	-0.031609155
8	0x3e49059c	0.19631046
9	0x3e261bc8	0.16221535
10	0xbcb1f2f2	-0.02172229
11	0xbd16d874	-0.03682752
12	0x3cb20ef9	0.021735655
13	0x3e68e787	0.2274457
14	0x3eba4d6e	0.363872
15	0x3e0afa86	0.1357213
16	0x3cd5d340	0.026101708
17	0xbd6c2ed8	-0.05766186
18	0x3e9eb6f4	0.30998957
19	0x3cfa992c	0.030590616
20	0x3da8db6f	0.08244979
21	0x3dae7dff	0.085201256
22	0x3e357697	0.1772102
23	0x3e23c3ad	0.15992613
24	0x3d6980d1	0.057007615
25	0x3e405deb	0.18785827
26	0x3e8880fb	0.26660904
27	0x3e101adc	0.14072746
28	0x3f18a9ab	0.5963389
29	0x3e875e8e	0.26439327
30	0xbdadd2fc	-0.08487508
31	0x3e975acd	0.29561463
32	0x3de41e03	0.11138537
33	0x3e910352	0.28322846
34	0xbd8454b4	-0.06461468
35	0x3d114fc8	0.035476476
36	0x3d4a2272	0.049349256
37	0x3dd1dfb6	0.102477476
38	0x3d34ac96	0.044109903
39	0x3e437b10	0.19089913
40	0x3e0b0df4	0.13579541
41	0x3ddbf503	0.10740092
42	0xbd0010b7	-0.03126594
43	0xbd799edf	-0.060942527
44	0x3ccc9818	0.024974868
45	0x3e22121a	0.15827218
46	0x3e78bc0b	0.24290483
47	0x3ea37550	0.3192544
48	0x3d672d87	0.056439903
49	0x3dc95c27	0.0983203
50	0x3dfbee9a	0.12301369
51	0xbe02ee39	-0.12786187
52	0x3dbc5a53	0.091969155
53	0x3d9559b2	0.07292499
54	0x3d437a11	0.047723833
55	0x3e01e694	0.12685615
56	0xbdfd562f	-0.12369954
57	0xbd571450	-0.052509606
58	0x3d3a430c	0.045474097
59	0xbd2603ac	-0.040530846
60	0xbd2d5a1a	-0.042322256
61	0x3e015223	0.12628989
62	0xbde38dd4	-0.11111036
63	0x3d4cc99d	0.04999696
64	0x3d09c6f2	0.033636995
65	0x3d806545	0.06269316
66	0xbdf366bb	-0.11884829
67	0x3db48460	0.08814311
68	0x3e05a2b5	0.13050349
69	0xbe17c2f2	-0.1482046
70	0xbda68608	-0.08131033
71	0x3d11ae19	0.035566423
72	0x3d549757	0.05190214
73	0x3d9fc15c	0.07800552
74	0x3ca461a4	0.02006609
75	0xbd5c1e99	-0.053740118
76	0x3d6d169a	0.057882883
77	0x3d220362	0.039554007
78	0xbdae64aa	-0.08515294
79	0xbe0242ff	-0.1272087
80	0xbe1b948a	-0.15193382
81	0x3d0b141d	0.03395473
82	0xbb4099c4	-0.0029388526
83	0xbc94a12b	-0.018143257
84	0x3cc80091	0.024414333
85	0x3d588be6	0.052867793
86	0x3d233026	0.03984084
87	0xbe0942e3	-0.13404422
88	0x3cb743dd	0.022371227
89	0x3c29a9f7	0.010355464
90	0x3d4ecaaf	0.050486263
91	0x3e0865e7	0.13320123
92	0x3dcd8a5c	0.100361556
93	0xbce57a13	-0.028012311
94	0xbddc8f5f	-0.10769533
95	0x3e19515b	0.14972441
96	0xbd98c62f	-0.074596755
97	0x3df6462c	0.12025103
98	0xbc1210bb	-0.008915122
99	0xbd6dace0	-0.058026195
100	0x3ce5500b	0.027992269
101	0x3d38364b	0.044973653
102	0xbd9fbc27	-0.07799559
103	0x3dfb2642	0.122631565
104	0x3e90bad7	0.28267547
105	0x3e2d35e9	0.16915096
106	0x3dc00140	0.093752384
107	0x3d2838a8	0.041069657
108	0xbe1c0a3c	-0.15238279
109	0xbca10eda	-0.019660402
110	0xbe175c64	-0.14781338
111	0xbc39a6e4	-0.011331294
112	0x3e3c1171	0.18366028
113	0x3d4fdbec	0.050746843
114	0x3e1af9c9	0.15134348
115	0xbd27ae00	-0.040937424
116	0x3d75b694	0.059988573
117	0xbd652d7d	-0.055951584
118	0xbc9d5330	-0.019204706
119	0x3af76e13	0.0018877409
120	0x3d5e15ec	0.054220125
121	0xbd69d0c3	-0.057083856
122	0xbe27d128	-0.1638838
123	0x3c5f5747	0.013631648
124	0xbdf7e6f0	-0.12104595
125	0x3d24f354	0.04027112
126	0x3e0875ee	0.13326237
127	0xbda0c655	-0.07850329
128	0xbd3be03f	-0.045868155
129	0xbe3cce29	-0.18438019
130	0xbe277528	-0.16353285
131	0xbdcfc270	-0.10144508
132	0xbe0c6853	-0.13711672
133	0x3deea9cf	0.11653482
134	0x3e2859fc	0.16440576
135	0x3db059d8	0.08610886
136	0xbc194db2	-0.009356903
137	0xbd1db52a	-0.03850285
138	0x3b826674	0.0039794985
139	0x3dc14587	0.094370894
140	0xbe510ec7	-0.20415793
141	0xbde149bb	-0.11000391
142	0x3dbb502b	0.0914615
143	0xbb297716	-0.0025858334
144	0x3e0caac2	0.13737014
145	0xbdcb79d8	-0.09935349
146	0x3d15b3a8	0.036548287
147	0xbcf52034	-0.029922582
148	0xbdee4128	-0.11633521
149	0xbe8308ab	-0.2559255
150	0xbdada129	-0.084780045
151	0x3cd25f04	0.025680073
152	0x3de3b490	0.11118424
153	0x3d07ab2c	0.033122227
154	0x3e2088ed	0.15677233
155	0x3e877f00	0.2646408
156	0x3c6eea33	0.014582205
157	0x3d8a84c2	0.06763603
158	0x3e0269bb	0.12735645
159	0x3e506f2b	0.20354907
160	0x3d008d6a	0.031384863
161	0x3dc21033	0.09475746
162	0x3da37a9b	0.079823695
163	0xbd0cc7fc	-0.034370407
164	0x3e321c1f	0.1739354
165	0x3e83ad79	0.25718287
166	0x3e5bd9cf	0.21469806
167	0x3e570765	0.20998915
168	0x3e181862	0.14853051
169	0xbd512324	-0.051058903
170	0x3e2f2b17	0.17106281
171	0x3d7e49db	0.062082153
172	0x3b465ee8	0.003026897
173	0x3ce6e3cd	0.028184796
174	0x3e1d6f1e	0.15374419
175	0x3dbe9c21	0.09307123
176	0x3e0a1d5c	0.13487762
177	0x3e0add33	0.13560943
178	0x3e22a400	0.15882874
179	0x3da19f10	0.07891667
180	0xbc0c97a0	-0.008581072
181	0x3f081fd1	0.5317355
182	0x3e5a52b8	0.21320617
183	0x3d72ddfa	0.059293725
184	0x3d9d07ec	0.076675266
185	0xbc15c428	-0.009141006
186	0x3e2869e2	0.16446641
187	0x3e16c373	0.14722995
188	0xbd0d2740	-0.03446126
189	0x3e6e7e96	0.23290476
190	0x3b3e8c33	0.0029075264
191	0x3d212afa	0.039347626
192	0x3e5a392a	0.21310869
193	0x3d9a7815	0.07542435
194	0x3d8f99c7	0.070117526
195	0x3cb7854a	0.022402424
196	0xbd5dadd4	-0.054120854
197	0x3def9036	0.11697428
198	0x3cd0fc64	0.025510974
199	0x3e5408c0	0.20706463
200	0x3e9fb8c5	0.31195655
201	0x3d3e0075	0.046387155
202	0x3e7632ca	0.24042812
203	0x3dccbd3a	0.099970296

linear.weight f4 [1, 51]
0	0xbde0170b	-0.10941895
1	0xbe694e45	-0.22783764
2	0x3e144fa3	0.14483504
3	0xbd8c44e8	-0.0684908
4	0xbe356467	-0.17714082
5	0xbe34b860	-0.17648458
6	0xbe6e086d	-0.23245402
7	0xbe344066	-0.17602691
8	0xbe10374d	-0.14083596
9	0xbdfc0a0a	-0.12306602
10	0xbe63f6db	-0.22262137
11	0xbe55825c	-0.2085051
12	0xbe2d866d	-0.1694581
13	0xbe6a1ab8	-0.22861755
14	0x3e22c277	0.15894495
15	0xbe2dac80	-0.16960335
16	0xbe09b40d	-0.1344759
17	0xbdac32ad	-0.08408103
18	0xbe6f64dc	-0.23378319
19	0x3e518588	0.20461094
20	0xbdf180ab	-0.117921196
21	0x3e5fc498	0.21852338
22	0xbe4535d0	-0.19258809
23	0xbe62c828	-0.22146666
24	0x3deccf36	0.1156296
25	0x3dce3b2b	0.10069879
26	0xbe31535a	-0.17316952
27	0xbe576965	-0.21036299
28	0xbe1fe026	-0.1561285
29	0x3e742268	0.2384125
30	0xbd7c68d2	-0.061623402
31	0xbe59ca70	-0.2126863
32	0x3e2cf927	0.16891919
33	0xbe4f1000	-0.20220947
34	0xbdaa4dc1	-0.08315612
35	0xbe0c47f6	-0.13699326
36	0xbe12853d	-0.14308639
37	0xbe0a0fe4	-0.13482624
38	0xbe2967dd	-0.16543527
39	0xbda3027f	-0.079594605
40	0x3e48366e	0.19552013
41	0xbe33306c	-0.1749894
42	0xbde79e01	-0.11309434
43	0x3e55cd83	0.20879178
44	0xbe568bec	-0.20951813
45	0xbe30a304	-0.17249686
46	0xbe4174aa	-0.1889216
47	0x3e1eb8ec	0.1550023
48	0x3e15c2dc	0.14625114
49	0xbdb88040	-0.09008837
50	0xbe58d304	-0.21174246
