otherTasks/TimeSeqPrediction/model.pth (torch_old, 130694 bytes, 9 tensors)

lstm1.weight_ih f4 [204, 1]
000000 f8 13 34 3d b8 1b 23 3e fd 56 38 be 6b a2 c4 bc
       0.043964356 0.15928543 -0.18001933 -0.024003228
000010 b4 f9 09 3c 57 77 13 bd bc c3 85 ba 74 80 f2 3c
       0.00842135 -0.036002483 -0.0010205428 0.029602267
000020 df 7a 19 3d b0 8d d8 bc fe ba 15 3d b8 40 ef 3c
       0.037470695 -0.02643475 0.036555283 0.029205665
000030 4f 11 b6 bd 1b 4d ca bc f9 a4 5c 3d 7b e6 91 bd
       -0.0889002 -0.02469497 0.053868268 -0.07124039
000040 0f 95 cd 3b c6 c7 40 3e 35 0e e4 bc 9b 36 10 be
       0.0062738727 0.18826208 -0.027838806 -0.1408333
000050 d4 3d 1e bd 02 2c 71 3e fe f3 a2 3c 3c cc 36 3e
       -0.038633183 0.23551944 0.019891735 0.17851347
000060 11 9d ef bd e4 f9 16 3e f5 3a 3a 3e 22 62 4a be
       -0.1169988 0.14743763 0.18186553 -0.19763997
000070 6c 41 97 bc 0c f3 d4 3d d5 87 a6 3c 2e 2d 4f 3e
       -0.018463813 0.1039792 0.020328442 0.20232078
000080 84 3b 57 3a c0 05 17 be ba 87 35 bc a6 10 b2 bd
       0.00082104676 -0.14748287 -0.011079723 -0.08694582
000090 a0 de c5 3c 36 51 4b 3e 6f 0a c5 bc a1 71 15 3e
       0.024154007 0.19855198 -0.024052827 0.14594127
0000a0 a4 ba d4 bd dc e1 1b be cf c5 89 3d c7 d2 3e be
       -0.103871614 -0.15222877 0.06727182 -0.18635093
0000b0 65 31 23 be bc f8 0d be db c4 29 3e a6 c0 be bb
       -0.15936811 -0.13864416 0.16579 -0.0058213053
0000c0 59 82 96 3c 11 84 17 bd c1 bd e3 3d e2 de 30 3e
       0.018372701 -0.036991183 0.11120177 0.17272523
0000d0 bf aa f2 3d 84 2c ae 3c b5 ae 20 3e 0d 4c f5 bc
       0.118489735 0.021261461 0.15691645 -0.02994349
0000e0 9d 11 44 bd 95 d9 22 be 32 d4 2a be 34 aa e1 bc
       -0.04786836 -0.15903313 -0.16682509 -0.02754698
0000f0 34 f2 c0 3c 97 cf bb 3d 90 6d 21 bd 87 cc a2 3d
       0.023552991 0.09170454 -0.039411128 0.07949167
000100 d8 54 e1 3d 57 ee 81 3d 5e c5 35 bd 57 4f 0b 3d
       0.11002511 0.06344288 -0.044377677 0.03401121
000110 00 a6 0c 3e 15 eb 3e 3e e3 da 1b be e7 b2 db bd
       0.13735199 0.18644364 -0.15220217 -0.10727482
000120 d7 d5 de 3d 38 61 24 3e f0 a2 31 3e 84 03 fd 3d
       0.108806305 0.16052711 0.17347312 0.12354186
000130 c6 b5 de 3d 9a 4a 5b bd 53 fe e0 bc a0 3b 3b bd
       0.10874514 -0.053537942 -0.027465021 -0.04571116
000140 53 db 94 bd c2 19 3f 3e 9b 13 38 3e f9 eb bb bd
       -0.07268395 0.1866217 0.17976229 -0.091758676
000150 c2 8a dd bc 16 d4 db 3c a5 b4 a1 bb a5 bc 11 3d
       -0.027043704 0.026834529 -0.0049348646 0.035580296
000160 82 44 ee 3d c7 a8 eb bd 53 80 d3 3d 3f 64 a4 3c
       0.116341606 -0.11506801 0.1032721 0.020067332
000170 7a 04 3a 3d e0 f4 cc 3d f7 ec 41 be bc 35 19 be
       0.045414425 0.10007644 -0.18938051 -0.14961904
000180 68 7b 87 3c a0 6a 9f 3d 99 f9 25 be ae ce 27 bc
       0.016538337 0.07784009 -0.16208495 -0.010242147
000190 48 c0 c4 3d 54 62 c6 3d 7a b5 1b be ff 3f 46 3d
       0.09606987 0.09686723 -0.15205947 0.048400875
0001a0 74 c6 57 be fd 6f ab bd 26 51 3b be 38 bb 3c be
       -0.21071798 -0.083709694 -0.18292674 -0.18430793
0001b0 8f ff b1 bc c0 90 bd 3d 8e 09 0b be 05 70 27 3e
       -0.021728305 0.092561245 -0.13577864 0.16351326
0001c0 08 24 29 be 5c b6 62 3e 29 b6 0b 3e e7 2d 4d be
       -0.16517651 0.22139877 0.13643707 -0.20037042
0001d0 e9 df ed bd 7d 92 a0 bd 0a da d3 3d 7a 23 5a bd
       -0.11614973 -0.078404404 0.10344322 -0.05325649
0001e0 a3 df fe 3d 99 5f 91 bd 84 50 1a be ad cd 1c 3e
       0.12444999 -0.07098312 -0.15069777 0.15312834
0001f0 7c e3 53 be bf 82 21 be 91 c5 e4 bd dd d8 ee bd
       -0.20692247 -0.15772532 -0.11170495 -0.11662457
000200 45 44 b7 bd 41 5d 49 be 6a 05 e6 bd 72 b7 fa 3d
       -0.08948568 -0.1966448 -0.112315014 0.12242021
000210 e1 95 25 be d3 63 6e 3d 75 6c 49 3e 2e 40 ba bd
       -0.16170456 0.05820067 0.1967028 -0.090942726
000220 c2 8d a7 bd 88 a6 ae bd 32 d4 d9 3d 64 10 1e 3e
       -0.08181335 -0.08527857 0.10636176 0.1543594
000230 c6 d7 5c 3e 13 b6 2f 3e b2 10 49 3e 5d 9f b7 bd
       0.21566686 0.171593 0.19635275 -0.08965943
000240 f0 41 29 be c9 ed c5 bc 46 55 18 3e a2 6a a5 bd
       -0.1652906 -0.024161236 0.14876279 -0.08076979
000250 a4 67 1b be 03 cd 3b be cf 9b 17 be 43 97 40 be
       -0.15176255 -0.18339925 -0.1480553 -0.18807702
000260 11 02 3d bc b3 09 f5 3d 2f 71 23 3e 9b 77 3f be
       -0.011536137 0.119647406 0.15961145 -0.1869797
000270 a4 ba 2c 3e f1 d0 32 bd 55 a3 da bd 16 10 b5 bd
       0.16868073 -0.043656293 -0.10675684 -0.08840959
000280 c8 08 e7 bd e9 70 88 3c 80 bc 44 be 8b 02 19 bd
       -0.11280972 0.016655402 -0.19212532 -0.03735594
000290 b7 a2 12 3d ae 72 4d 3d 3c 2f 67 ba 96 f0 20 3e
       0.03579971 0.050158195 -0.0008818989 0.15716776
0002a0 1b 88 4f be 6d ca 17 bd 21 94 66 3e a3 fa 45 3c
       -0.20266764 -0.037058283 0.22517444 0.012083682
0002b0 51 18 3e 3d 93 81 23 bd f3 07 11 bc dc db 06 3e
       0.04640991 -0.039918493 -0.008851993 0.13169807
0002c0 a1 4a 76 3d 3e 70 f6 bd 33 60 84 3e c0 e7 2e bd
       0.060129765 -0.12033127 0.25854644 -0.042701483
0002d0 e6 a1 69 bd ea 80 3b 3d cf 92 79 3e a9 c2 00 3e
       -0.057039164 0.04577724 0.2437241 0.12574257
0002e0 7f c6 1e 3e e0 9b 09 3e 2a 5c eb bd 77 3b 54 3d
       0.15505408 0.13438368 -0.11492188 0.051814523
0002f0 32 47 73 bd ad 7b 3e 3e 3d c4 4a 3e d2 10 3d 3b
       -0.05939407 0.18601866 0.19801421 0.0028849137
000300 f1 90 6d bc ff 03 da bd 23 ce 36 be ce 70 d6 bc
       -0.014499889 -0.106452934 -0.17852072 -0.026176836
000310 b0 9b 02 be 0d bf 9d bc 55 ad 1b be 2b 71 91 3d
       -0.12754703 -0.01925614 -0.1520284 0.07101663
000320 01 e6 bf bd cd 69 31 3e 34 4a 09 be 6c 35 9d bd
       -0.09370042 0.17325516 -0.13407212 -0.07676205

lstm1.weight_hh f4 [204, 51]
000000 99 da 9e bd 6e 51 0a 3e 4e 1a 32 bd 83 47 a0 3d
       -0.07756538 0.13507625 -0.043482117 0.0782614
000010 c5 30 83 3c a5 c9 a0 3d 7f 62 b0 bc a5 29 b0 bd
       0.016014466 0.07850961 -0.021531342 -0.08601693
000020 63 c6 03 3d 62 ee cf bd 8b 48 cd bc 8f 40 4d 3c
       0.03217162 -0.1015289 -0.025059005 0.012527599
000030 2a c1 85 bd b2 38 e7 bd 7b b1 c9 3d 8c 6e 7b bd
       -0.06530984 -0.11290111 0.09848305 -0.061384723
000040 4c 4a 56 bd 37 e6 ea 3d 04 f7 bc 3d ee 81 9f 3d
       -0.05231695 0.11469691 0.09226802 0.07788454
000050 f5 29 3c bd 6c a0 b9 3d 4a c4 cb bd 8f b4 8e bd
       -0.04593845 0.09063801 -0.099495485 -0.069680326
000060 5b db c6 ba 3e fd 5c bd 60 09 38 bd d1 fc 36 3e
       -0.0015171574 -0.053952448 -0.044930816 0.1786988
000070 ca c0 e7 bb 37 b4 0f 3e 49 f0 79 3d 4c 4c 31 bd
       -0.007072543 0.1403359 0.06102017 -0.043285653
000080 96 30 dc 3d 00 d9 fb bc a5 5c 87 bd 74 ab ba 3b
       0.107514545 -0.030743122 -0.066094674 0.0056967083
000090 89 5d a5 3d 90 ea 10 3e ff d6 e7 bd db 54 42 3d
       0.08074481 0.14151978 -0.11320304 0.047444206
0000a0 b6 e3 9a 3d de 9f 91 bd ba d3 61 3d 6d 35 3e be
       0.07562964 -0.0711057 0.05513356 -0.18575068
0000b0 d2 f6 37 bd 65 44 58 bb 69 6c e1 bd b7 ad c2 3d
       -0.04491312 -0.003299975 -0.11007006 0.0950579
0000c0 26 0a 7b 3d a7 3e 78 ba 72 1c 19 bd 67 5d 4f bd
       0.061288975 -0.0009469785 -0.037380643 -0.050626185
0000d0 d1 3e 0b be 1e b8 9d 3d 21 47 ab bd 02 61 f6 bd
       -0.13598181 0.07701133 -0.08363176 -0.120302215
0000e0 76 66 82 bd 35 69 df 3d 5f 1a ba 3d d6 0d 02 3e
       -0.06367199 0.109087385 0.09087061 0.1270059
0000f0 df d3 16 3d 5b d6 2a bd 69 8b 81 bd 9c b5 a4 3d
       0.03682315 -0.04170833 -0.063254185 0.08042452
000100 eb 46 df 3d f6 1e 81 3b 4e 1c 0a bd 63 f8 b6 bd
       0.109021984 0.0039404584 -0.0337184 -0.08934095
000110 3e bc d7 bd c1 44 82 3d c9 8d e9 bc 6d bc b4 bd
       -0.10533951 0.0636077 -0.028509991 -0.08825002
000120 7d 61 fd 3d be c8 f4 bd 48 1d 95 bc 94 dd 81 3d
       0.1237211 -0.11952351 -0.018202439 0.06341091
000130 b1 e3 12 bd c0 0b 06 be bd 59 c6 bd 5d b5 d2 3d
       -0.035861675 -0.1309042 -0.09685085 0.102884986
000140 28 95 dc 3b c2 d1 af 3d d9 9b 28 bc 5c 34 9f 3d
       0.006731648 0.0858493 -0.010291063 0.07773659
000150 1c de d8 3b 8b df e9 3c 2b 2d e1 bd 40 7d a3 3d
       0.0066182744 0.028548976 -0.10994943 0.07982874
000160 99 7f a3 3d 33 72 c1 bc 95 43 ca 3b 2d 3d 80 bd
       0.07983322 -0.023614025 0.006172607 -0.06261668
000170 cc 3b 07 3e 99 da 13 be ce b2 fa 3a 75 66 42 bc
       0.13206404 -0.14438857 0.0019126774 -0.011865248
000180 15 60 7a bd bd 99 a3 3c 6c d2 5d bd 40 d6 98 bc
       -0.061126787 0.019970769 -0.054155752 -0.01865685
000190 cf e6 e0 3c c3 d7 a2 bd df fa 91 bc 4a 9f ed 3d
       0.027453808 -0.079513095 -0.01781982 0.116026476
0001a0 66 43 c0 3c 0c da 96 bd 2d 09 30 be 1d 39 ee 3c
       0.023469638 -0.07365808 -0.17191 0.029079968
0001b0 b5 ac d4 bb 70 ce d3 bd c8 91 bb 3b e7 5b 45 3d
       -0.006490315 -0.10342109 0.0057241656 0.048183348
0001c0 4e 3d 08 be 89 23 74 3d 4c be e8 3d 65 94 3d bd
       -0.13304636 0.0596042 0.11364421 -0.0462841
0001d0 05 b8 b2 bc 9e 68 8d 3d ab cc af bd 5a f4 3c bd
       -0.021816263 0.0690472 -0.08583959 -0.04613147
0001e0 bd d0 1b 3e 5f a2 31 3e 44 c3 08 3e 79 c4 a0 3d
       0.15216346 0.17347096 0.13355738 0.07849974
0001f0 f9 7b 15 bc f7 dd 01 be 5d dd 2e be f3 36 4f be
       -0.009123796 -0.12682329 -0.17076631 -0.20235805
000200 bd 06 b1 3d cd 09 0c 3e ac ce 1b be e0 07 df 3d
       0.08643863 0.13675614 -0.15215558 0.10890174
000210 4a a7 35 3d 10 5a 4b 3e 28 46 35 3e f1 7f 21 3e
       0.044348992 0.19858575 0.17702544 0.15771462
000220 b1 e4 ab bd a0 a2 b9 bd b7 85 39 3e cf 7d 11 3e
       -0.08393229 -0.090642214 0.18117414 0.14208148
000230 0a b8 e4 bd b6 85 3e 3e 17 04 e3 3d ca c8 02 3e
       -0.11167915 0.18605694 0.110847645 0.12771907
000240 51 43 11 be 18 3d 00 3d 9e 8d cd bd c9 36 04 3e
       -0.14185835 0.031308264 -0.10036777 0.12911524
000250 f2 38 a5 bd 28 13 c8 3d 25 ed 1c bd 75 6b a2 3d
       -0.08067502 0.09769279 -0.038312096 0.07930652
000260 c4 57 82 3b 0a 91 78 3d 6c 00 bc bd f4 91 a2 3c
       0.0039777476 0.060685195 -0.09179768 0.019844986
000270 d8 5f e9 bd 52 00 2c be ca 7b dc bd 24 b1 09 3e
       -0.11395234 -0.16796997 -0.107657984 0.1344648
000280 97 8c a0 3d 63 fe 0a 3e cc 72 d3 3d e6 79 0b be
       0.078393154 0.13573603 0.1032463 -0.1362072
000290 59 9c ce bd bc ed 71 3c ff 81 e6 bd 5c 6b 82 3d
       -0.10088415 0.014766153 -0.112552635 0.063681334
0002a0 15 e5 a0 bd 90 2d a3 bd 2f 3e ee bd 01 ca 30 bd
       -0.07856194 -0.07967675 -0.11632954 -0.043161396
0002b0 6d 7c 23 3e df 3c 1b 3e 0a 37 ea 3d cb ca 9d 3d
       0.15965433 0.15159939 0.11436279 0.07704695
0002c0 34 6d e0 3d 94 b7 c9 bc 74 59 c8 3c d6 b0 c7 3d
       0.10958329 -0.02462367 0.024456717 0.09750526
0002d0 53 18 83 3d 83 8f 00 3e c3 88 94 3d 30 a6 5e 3d
       0.06401124 0.12554745 0.07252648 0.054357708
0002e0 88 0a 72 bc cf 2d d9 3d 08 76 54 3d 44 8b cc bb
       -0.014773019 0.106044404 0.051870376 -0.0062421877
0002f0 7d a9 b5 bd c7 c5 35 bd 13 6b 94 bd 96 9b b0 3d
       -0.08870218 -0.04437807 -0.07246985 0.08623426
000300 9e f8 0b 3e 14 23 51 3c 80 ad 3c bd 30 61 8f 3d
       0.13669059 0.012764711 -0.0460639 0.07000959
000310 73 ac 3d 3d 34 76 03 3d 85 45 33 bd e5 23 de 3d
       0.04630704 0.03209515 -0.04376747 0.1084669
000320 b4 a0 67 3d c0 0a 1c be 03 bc 10 3e fe 90 01 3e
       0.056549743 -0.15238476 0.14134221 0.12652966
000330 b6 d4 b6 bd 0e 3c 05 3e 0f 00 a9 bd c4 39 96 bd
       -0.0892729 0.1301119 -0.08251964 -0.07335237
000340 0c 7b a2 3d 45 17 12 3d ba d7 27 be bf 55 e0 bd
       0.079336256 0.035666723 -0.16390887 -0.10953855
000350 ef 08 41 bd fc 69 56 bd 01 94 28 bd 64 a8 0c 3e
       -0.04712766 -0.05234717 -0.041156773 0.13736111
000360 db 3c 6d 3d fd 7c 15 be 53 c5 12 bd 5b 43 f8 3d
       0.057919364 -0.1459846 -0.035832714 0.12122222
000370 4f b7 6b 3d 48 82 33 be d2 a1 d5 3c 96 4c 42 bd
       0.057547864 -0.17530167 0.026078139 -0.04743632
000380 ca 3f 95 ba fa 3c b7 3d 05 5b 10 be 6a 1e df b7
       -0.0011386808 0.08947177 -0.14097221 -2.6597834e-05
000390 55 0d fe 3d e6 9a 2e bd 8a 30 13 be 8d b7 86 3b
       0.12404887 -0.04262819 -0.14373985 0.0041112364
0003a0 56 13 f1 bb 9b 04 6e bd 96 62 a5 3c 4a fb 96 bd
       -0.0073570414 -0.05810986 0.020188611 -0.07372148
0003b0 b4 50 a5 bd 4d df a0 bd cc 55 6d bd ba 3b 79 3d
       -0.080720335 -0.07855091 -0.05794315 0.060847975
0003c0 e6 20 b4 bd 9c 57 29 3e 3a 64 c9 bd 3c 85 aa 3d
       -0.087953374 0.16537327 -0.0983357 0.08326194
0003d0 63 2a d9 3c 6c 67 8b bd 49 df 89 3d 82 05 1e 3d
       0.02650947 -0.068068355 0.067320414 0.03857947
0003e0 96 16 91 3d e5 cf c4 3d 7d fe 17 be 5a e8 4a 3e
       0.07084386 0.09609965 -0.14843173 0.19815198
0003f0 ff f9 2b bd 3e 5e 9e 3d c6 4f 72 bd b3 0a 70 bd
       -0.04198646 0.07732819 -0.05915811 -0.058603954

lstm1.bias_ih f4 [204]
000000 a0 9e 30 3e 0f 70 06 3e e5 a4 40 3e a8 b0 22 3e
       0.1724801 0.13128684 0.18812902 0.15887702
000010 39 2e 13 3e 5f 73 84 3d 91 0d ca bc 0f 4a 96 bd
       0.14373101 0.06467318 -0.024664672 -0.07338344
000020 70 07 08 3e 9b 01 f1 3c 7f a1 bb 3d d7 31 77 3d
       0.13284087 0.02941971 0.09161662 0.060350265
000030 ad 30 e3 3d 31 8e a2 3d b3 dc 06 3e 55 7a 22 3e
       0.110932685 0.07937277 0.13170128 0.15866978
000040 6d 72 e3 3d 62 7d 72 3d 12 d4 ee 3d 98 f5 eb bc
       0.11105809 0.059201606 0.11661543 -0.028803632
000050 aa b5 30 3e e4 79 3b 3e cc d4 a7 3d 82 44 4a 3d
       0.172568 0.18308216 0.08194885 0.04938174
000060 ae 6e bc 3d 85 e8 32 3e ed 0d 81 3d ac 2e 83 bc
       0.09200798 0.17471512 0.06301484 -0.016013466
000070 0d 34 f6 3c 03 e2 98 bd 26 75 7a 3d 48 cc b0 bd
       0.030054117 -0.07464983 0.061146878 -0.086327136
000080 79 af 88 3d c3 01 9c 3d 16 86 4d 3e c2 aa 4f bc
       0.06674094 0.076175235 0.20070681 -0.012674989
000090 5f b8 34 3d 93 70 66 3d 2f de b9 3c d3 a2 1b 3d
       0.044121142 0.056259703 0.022688953 0.03799708
0000a0 26 e3 ec 3a 98 a2 e1 3b b9 b4 3e 3d be 8d a8 3d
       0.0018073067 0.0068858378 0.04655907 0.0823016
0000b0 67 60 ae 3d fd 51 15 3e 1c 96 5d 3d 14 62 e4 3d
       0.08514481 0.14582057 0.054098234 0.111515194
0000c0 26 4b f8 bc 6d 94 1e 3e 9f 85 0d 3e 51 ca 4c 3d
       -0.030309271 0.15486307 0.13820504 0.04999763
0000d0 e5 31 b3 bd df 73 84 3c 20 ed e3 bd 8c ac 01 be
       -0.08749751 0.016168533 -0.111292124 -0.12663478
0000e0 ab 19 00 3e b2 66 7f 3d 57 b7 13 3e fb d9 f0 3d
       0.12509792 0.062353797 0.14425407 0.117603265
0000f0 99 c8 85 3c 11 c7 d2 3d 9e f4 9c bd 61 c5 e5 bd
       0.016331004 0.10291875 -0.076638445 -0.11219288
000100 b7 c2 e2 3c da 31 ba bd b7 97 2c 3e 47 74 f7 bd
       0.027680738 -0.0909154 0.1685475 -0.12082725
000110 10 84 18 3e e9 f0 ca bb 80 45 56 3d 9a 84 09 3e
       0.14894128 -0.0061932695 0.052312374 0.1342949
000120 42 44 37 bd ed 6e de bc 08 30 96 3d e5 bc ec bc
       -0.04474283 -0.027152503 0.0733338 -0.028898666
000130 34 39 90 3c 56 6b d8 3d df 88 b4 3c da de df 3d
       0.017605402 0.10567348 0.022037921 0.109311774
000140 07 c9 e2 bc 7a 38 88 3d ff 15 5e 3d d4 a1 8f bd
       -0.027683748 0.06651397 0.054220196 -0.07013288
000150 a2 aa 49 3c 32 38 bc 3c f8 57 c9 bd 6d 61 1d 3e
       0.012308748 0.022976015 -0.09831232 0.15369196
000160 47 5e 66 bd ac 27 ca 3d 56 58 f8 3c 39 02 a9 bd
       -0.056242254 0.09870848 0.03031556 -0.08252377
000170 0d a1 0b 3e 48 c9 38 bd f6 2c 24 bc 2f 32 cf bc
       0.13635655 -0.04511383 -0.010020485 -0.025292484
000180 d0 85 0c be df f6 e5 3d 13 09 4b bd 2b f1 1f 3d
       -0.1372292 0.112287275 -0.0495692 0.039048355
000190 af ff b3 3d dc 93 c6 3d 9a f7 44 bc f8 62 dc 3d
       0.08789002 0.09696171 -0.012021923 0.10761064
0001a0 d2 45 6a bd 3e 9a 08 bd 55 67 71 bc 5a 8f e7 3d
       -0.057195492 -0.03335022 -0.014734109 0.11306639
0001b0 1c 88 0b 3c 26 c4 4b bd d5 05 be bd 1a 88 3c be
       0.008516338 -0.04974761 -0.09278456 -0.18411294
0001c0 1e 6d 2f be 8f 1c 0f 3d 01 73 09 3e 5f 20 37 be
       -0.17131469 0.034939345 0.13422777 -0.17883442
0001d0 1a dd 21 be 3d 65 30 3e 4e 25 70 3d 29 9a 33 be
       -0.15807 0.1722612 0.058629327 -0.17539276
0001e0 37 eb c3 3c 2e 7f f2 3d db 57 cc 3d 1b 3d 5d 3c
       0.02391587 0.11840664 0.099776946 0.013503338
0001f0 1b d4 ae bd 5d 49 fa bd 2a 74 63 bb d7 fb 2c be
       -0.0853655 -0.12221024 -0.003470669 -0.16892944
000200 88 40 fd bd 38 ff 0a 3e 34 ad 50 3c f5 db b3 3d
       -0.12365824 0.1357392 0.012736607 0.08782188
000210 bf da 2b be c9 6f 97 3d 1b 80 2b 3e 2b a4 fd 3d
       -0.16782664 0.07394368 0.16748087 0.12384828
000220 55 0d 3c 3c 1e d9 18 bd e5 23 25 3e df c1 0b 3c
       0.011477788 -0.037316434 0.16126974 0.008530109
000230 74 15 25 bd c6 3a e7 bc a8 1b ba bd c3 58 70 3d
       -0.040303662 -0.028226268 -0.09087306 0.0586784
000240 fd ef 0a bd 97 4d c8 bd 94 fc 52 bd 8e a3 fa 3d
       -0.033920277 -0.09780424 -0.05151041 0.12238227
000250 e4 bf 1e be 97 0d b9 3d 5b f5 d7 bb b4 45 85 bc
       -0.15502888 0.09035795 -0.006590528 -0.016268589
000260 6b 9a 0e 3e 83 d3 28 3e ff ea a2 3d 53 a3 7e 3c
       0.13926093 0.16486935 0.07954978 0.015541869
000270 9c a2 71 3d 15 4f 09 3e 71 c0 55 3d 09 27 4a bd
       0.058992967 0.13409074 0.05218548 -0.049353633
000280 38 56 77 3d 29 4d 71 bd 64 c9 21 3e 97 53 97 3d
       0.06038496 -0.058911476 0.1579948 0.0738899
000290 be 88 f3 3c 8a 48 fc 3c 34 e5 56 bc 10 c2 0a 3a
       0.02972829 0.030796308 -0.01311617 0.00052932
0002a0 a9 bf 29 bd 3d b3 d0 3d 1b d9 ed 3d 44 51 fb 3b
       -0.041442547 0.10190437 0.11613675 0.0076695997
0002b0 4e e1 0a 3e ab 24 31 3e df 48 4e bd bc d1 dc bc
       0.1356251 0.17299144 -0.050362464 -0.026955478
0002c0 2d a9 94 3d ca 28 87 bc be 95 0f 3e 1f 0d 1f 3e
       0.0725883 -0.016498942 0.14021966 0.15532349
0002d0 7a f5 a6 bc 81 88 9f 3d d1 df 86 3d 9f e7 38 3e
       -0.020380724 0.07789708 0.06585658 0.18057106
0002e0 eb a2 93 bd b4 02 a9 3d a3 87 37 bd 03 b7 50 bd
       -0.072088085 0.08252469 -0.044807088 -0.050955784
0002f0 fa c2 1f 3e f6 0e 04 3e b8 60 a7 bd 2f 80 22 3e
       0.15601721 0.12896332 -0.081727445 0.1586921
000300 9c db 2d bc 5a 6e 37 3e 38 bd a8 3d d1 10 4d bc
       -0.010611441 0.1791319 0.082392156 -0.012516216
000310 a4 03 35 3d a0 63 fe 3c f8 48 00 3d 88 2b 14 bd
       0.044192925 0.031053364 0.03131959 -0.036174327
000320 e0 de 0e 3e 85 ae 6a bc ca a6 9b 3d 2a 0c 98 bd
       0.13952208 -0.014323835 0.07600172 -0.07424195

lstm1.bias_hh f4 [204]
000000 88 e0 b5 39 6c f5 64 3d 45 40 b0 3d d1 eb b4 bd
       0.000346903 0.055898115 0.086060084 -0.08834041
000010 c3 5f da 3d 05 eb ef 3d 86 19 5b bd 7f 6a 9c 3d
       0.10662796 0.11714748 -0.053491138 0.076375
000020 78 de 74 bc 2e 0d 75 bd 03 b2 3c 3d 22 ed 3c 3e
       -0.014945619 -0.059827022 0.046068203 0.18449834
000030 1d d4 d1 3c db 3f c6 bc f9 b9 0f 3e 23 92 02 3d
       0.025613839 -0.02420037 0.14035787 0.031877648
000040 7b e8 63 bd a7 41 ef 3d 66 d8 80 bd dd 0b 14 3e
       -0.055641633 0.11682444 -0.06291275 0.1445765
000050 f5 82 d1 3d 0f 94 ec 3d 3a 31 73 bd ef af cd 3d
       0.10230056 0.115516774 -0.059373118 0.10043322
000060 80 3d 36 3d b2 fd ac 3c 3c b7 8e 3d 1c c0 91 bd
       0.044492245 0.021117065 0.06968543 -0.0711672
000070 80 25 24 bd dd 54 84 bd ba fa 7e 3c 18 5a d3 3d
       -0.040074825 -0.06461499 0.015562708 0.103199184
000080 2e 26 e5 3d 0a fc c0 3d 80 e9 76 3c 84 ca 0d 3d
       0.11188923 0.09423073 0.015070319 0.034616962
000090 18 20 da 3d 56 7c bf bb f6 31 72 bd ab 61 73 3d
       0.10650653 -0.0058436794 -0.059129678 0.059419315
0000a0 ca 5a 80 3b 46 f4 20 3e ea 92 9e 3d f1 67 46 3d
       0.003917073 0.15718183 0.077428654 0.04843897
0000b0 07 17 ef 3d 68 29 b8 bd 5e a4 e3 ba d6 90 33 bd
       0.11674314 -0.089922726 -0.0017367711 -0.0438393
0000c0 68 33 54 3d a5 41 02 bd 2e c7 84 3c d9 ce 8a bd
       0.051806837 -0.031800885 0.016208258 -0.06777734
0000d0 b3 a7 3b 3d cd 80 c7 bd f2 f1 8a bd 51 d6 c7 3d
       0.045814227 -0.09741364 -0.06784429 0.097576745
0000e0 fd eb f3 3d 5a 5f 4a 3c 62 41 d5 bc 39 aa c3 bd
       0.119102456 0.012351835 -0.026032154 -0.09553952
0000f0 a6 88 0b 3e eb 33 27 3d 65 07 0b bd ef 5c 57 bc
       0.13626346 0.040820997 -0.0339426 -0.013144716
000100 bc 9b 7b 3c 61 5d 89 3d fe 31 54 bd 27 74 81 bc
       0.015356954 0.06707264 -0.05180549 -0.015802456
000110 ae ff df 3d ce c5 5c bc 8d cb cf 3d c0 41 43 3d
       0.10937439 -0.013474895 0.10146246 0.047670126
000120 e2 f3 ca bd e5 6f 27 3d 8c 8f 77 3b 43 9c ab bd
       -0.09909798 0.040878195 0.003777477 -0.08379414
000130 e2 5d 86 bd 82 9f 09 3e cf 04 c8 3d 60 0e 15 3e
       -0.065608755 0.13439754 0.09766542 0.14556265
000140 ee 29 29 3e 7a e0 2f 3d 48 78 79 bb b4 fe d5 3d
       0.16519901 0.042938687 -0.0038066078 0.104489714
000150 54 74 3d bd b4 56 a0 3d 15 dc e7 3d 9d 8a 19 3e
       -0.046253517 0.07829037 0.11321274 0.14994283
000160 1c ad ec 3d ae 30 01 bd 28 c2 2a bd b0 af 53 bd
       0.115564555 -0.031540565 -0.041689068 -0.05168122
000170 95 f5 c1 bd 36 66 f3 3d 08 bd 7c bd 95 ee 5b 3c
       -0.09470669 0.118847296 -0.06170371 0.013423582
000180 6e be 18 bd fa d1 86 3d 9a 54 d3 bd 6a e4 24 bd
       -0.037290983 0.065830186 -0.10318871 -0.040256895
000190 b0 a7 0d 3e 27 3d e4 bc 99 a3 10 bd da 64 f8 3d
       0.13833499 -0.027861191 -0.03531227 0.12128611
0001a0 c6 92 31 3e 84 e4 23 be 50 0a 96 bc 8a 48 c3 bd
       0.17341146 -0.1600514 -0.018315464 -0.0953532
0001b0 fc 50 16 be 41 0e 0a be 73 23 a3 3d b2 7a 58 3d
       -0.1467933 -0.13482 0.07965746 0.052851386
0001c0 77 13 38 bd c8 a6 51 bd 60 6b 02 3d e4 92 42 be
       -0.044940438 -0.051184446 0.031840682 -0.19001347
0001d0 59 d0 cf 3d 33 ae e3 3d 94 1c f1 bd 1e b7 5f bd
       0.10147161 0.1111721 -0.11773029 -0.054617994
0001e0 b2 ad 0b 3e 60 35 f1 3d 14 e2 1a 3e 32 19 11 3e
       0.13640478 0.117777586 0.15125304 0.14169767
0001f0 85 d9 b1 3d b6 98 d5 bd c7 2c 9c 3d 7b 11 08 bd
       0.08684067 -0.10429518 0.07625728 -0.033219796
000200 5c d3 19 be c6 4b aa 3d f8 17 c4 bd 9c f9 35 3e
       -0.15022033 0.08315234 -0.09574884 0.17771
000210 c3 3a f2 3c de cc 31 3e bf 7e 25 3e b0 5f 32 3e
       0.029569035 0.17363307 0.16161631 0.17419314
000220 73 66 f5 bd 35 03 bb bd bd 21 be bd 9c 11 38 3e
       -0.11982431 -0.09131471 -0.09283779 0.17975467
000230 cf 3e 98 bd 0c ef 74 3d 23 f3 8a 3b 91 c6 4e 3e
       -0.07433855 0.059798285 0.00424041 0.20192935
000240 1c 5f 8f bd e7 15 35 3c 38 49 2c be 61 4b 48 bd
       -0.070005625 0.011052585 -0.16824806 -0.048900012
000250 74 fe 18 be 74 5e fd 3d 10 c4 86 bd fe c4 ad 3d
       -0.14940816 0.12371531 -0.06580365 0.08484839
000260 72 9e 18 3e d4 36 17 3e f9 fe a0 3d df 81 9a bb
       0.14904192 0.14767009 0.07861132 -0.004715189
000270 76 ea dd 3d 1f 4b 4e 3e c3 c9 66 bd 8a f5 9d bc
       0.108357355 0.20145844 -0.05634476 -0.019282121
000280 c0 f0 49 bd 97 19 c5 3c 14 89 b7 3d 9f da 92 bd
       -0.049301863 0.024060054 0.089616925 -0.07170605
000290 be fd d0 bb 41 a4 90 3d 75 8e 31 3e bb b3 09 bd
       -0.0063779047 0.07062579 0.173395 -0.03361867
0002a0 b2 8c fe 3d f4 6d 3b bd 6b 51 e6 bb 80 cd 1f 3e
       0.12429179 -0.045759156 -0.0070287487 0.15605736
0002b0 14 1c 2d 3d 8f bc 07 3e 8d 84 0a bc 85 a7 df 3d
       0.042263106 0.13255523 -0.008454454 0.10920624
0002c0 30 07 ec 3c 6a 46 62 3d ac 07 cb 3d 24 38 8c 3d
       0.028812021 0.055242933 0.09913573 0.068466455
0002d0 a4 bd 1e 3e 1b fd 56 3d a6 3d 63 3c 33 4c 2b 3e
       0.1550203 0.052487474 0.013869679 0.16728286
0002e0 7b 25 1c 3d d7 16 ab bd ab 4b 1e bd 16 9e 1e 3e
       0.03812168 -0.08353966 -0.03864638 0.15489992
0002f0 ba 64 ca 3d 74 ff 9d bc 74 aa 20 3e 9f 61 12 3e
       0.09882493 -0.019286849 0.15690023 0.14295052
000300 86 e6 1a 3e f4 2f 8b 3d 67 30 01 3e cb ae ad 39
       0.15127 0.06796256 0.1261612 0.00033127362
000310 f4 24 b6 bd da 6d a4 3c 47 87 75 3d 5b d7 2b bc
       -0.08893767 0.020071913 0.059943464 -0.010488356
000320 1a da 01 3e 58 e6 57 3e 24 a7 fa 3d 72 80 f2 3d
       0.12680855 0.21083963 0.12238911 0.11840905

lstm2.weight_ih f4 [204, 51]
000000 3a c6 58 bd 4c c0 10 3d b4 ab c1 bd 62 66 a2 3d
       -0.05292342 0.03533964 -0.09456578 0.07929684
000010 7c 54 1e be bd 2f 1f 3c 28 22 fb 3c ec b8 d9 3d
       -0.15461916 0.009715972 0.030655935 0.10630974
000020 80 1f 55 bd 10 2a 30 bd 70 14 c9 3d ad e7 4f bd
       -0.052031994 -0.043008864 0.09818351 -0.050758053
000030 ae 8b 3e 3d bb 95 01 be d6 cb 6d 3d 98 4f 05 3e
       0.046519928 -0.12654774 0.05805572 0.13018644
000040 60 cf 3a bd 1d ab 11 bd f0 73 31 3d 99 2d af bd
       -0.045607924 -0.035563577 0.043323457 -0.08553619
000050 2e b7 fe 3d b5 08 db 3d ba 6d 54 bd ee 06 9e 3d
       0.124372825 0.1069502 -0.051862456 0.077161655
000060 c6 8b 2f 3d 97 83 74 3b 15 74 40 3c cd e8 77 bd
       0.042857908 0.003730988 0.011746426 -0.06052475
000070 5f 8c 21 be aa 8c b5 3d fd a3 76 bd f1 d3 ed 3d
       -0.15776204 0.0886472 -0.060214985 0.1161269
000080 92 d1 6b bd 58 2a 0f 3d 13 18 95 3d dd 98 f8 bc
       -0.05757291 0.03495249 0.072799824 -0.030346328
000090 3f d4 5a bd 1d 6d bb 3d 8c f5 2a 3e 8b 4b 8c 3c
       -0.05342507 0.09151671 0.16695231 0.017125865
0000a0 c7 6a 28 3d 53 09 c9 3d d2 ca 28 3d 4e 9e f9 bb
       0.041117456 0.098162316 0.04120905 -0.0076177483
0000b0 ee d2 62 3d 4e cb b3 3d be a8 b8 3d e9 fd 2b be
       0.05537694 0.08779012 0.0901656 -0.16796078
0000c0 20 ef e1 3c 78 c9 94 3d 0d df de 3d 9b 54 a3 3d
       0.027579844 0.072649896 0.10882387 0.079751216
0000d0 ed d0 ef 3d 84 ea 38 3e 4b 44 3f bd e5 1e 4d 3e
       0.11709771 0.1805821 -0.04669599 0.20031317
0000e0 7e 49 2d 3d fa de 3c 3b 6a 13 14 3d 65 ea 89 3d
       0.042306416 0.0028819428 0.036151327 0.0673416
0000f0 e6 20 0c 3d 49 56 b5 3d a4 fd 51 bc 9d 8b 17 bd
       0.034211062 0.08854348 -0.01281682 -0.03699838
000100 84 d0 26 be 97 1b 44 3d 71 b2 1c 3e 14 46 36 be
       -0.1629048 0.047877874 0.15302445 -0.1780017
000110 04 62 72 bd c2 87 0f 3d 38 e2 2e 3d 92 88 1f 3e
       -0.059175506 0.035041578 0.042696208 0.15579441
000120 47 85 b0 3d 2a 44 1c 3c ff ad 69 3d bc 49 31 3e
       0.08619171 0.009537736 0.0570507 0.17313284
000130 fb 66 34 3b 4b e4 0f 3c 51 63 53 3e 8c f5 0e 3d
       0.0027527201 0.008782457 0.20643355 0.03490214
000140 11 4d da bd 2f f5 be bd e6 b0 3b 3e 74 1c d8 bc
       -0.106592305 -0.09324109 0.183292 -0.026380755
000150 1c ea 50 3e be 72 c1 bc 78 3b 03 be fd 7f ef 3d
       0.20401806 -0.023614284 -0.12815654 0.11694334
000160 ed af b3 3d 10 26 d3 bd e2 67 fe bd 3b 23 1d be
       0.087737896 -0.10309994 -0.12422158 -0.1534547
000170 a3 1e d7 ba d0 b0 62 3d 85 a9 c7 bc fb 16 2b be
       -0.0016412329 0.055344403 -0.024372825 -0.16707985
000180 72 35 9b 3c cf 75 72 3c ca 8c e4 3d e7 75 a6 3d
       0.018946383 0.014798596 0.11159666 0.08127957
000190 7a 80 a8 bc 0c ba bf 3b 39 8b 09 bd 00 8f 12 3e
       -0.020569075 0.005851036 -0.03358004 0.14312363
0001a0 1d b4 9a bd 3e 52 22 be 85 ce 62 bd cb c5 3c be
       -0.07553885 -0.15851685 -0.055372734 -0.18434827
0001b0 70 0a 32 be ab e4 aa 3d bb af 63 3c 7c fe d6 bc
       -0.17386794 0.08344396 0.013896878 -0.026244394
0001c0 98 bc 1d 3c 5a 06 85 3d bb 54 0a 3e 7b ba 4d be
       0.009627484 0.06495352 0.13508885 -0.20090668
0001d0 4f 22 1c be 9c 09 00 3b 46 12 9e 3d 79 93 91 3c
       -0.15247463 0.0019536978 0.07718329 0.017770516
0001e0 bf c6 ac 3d 1c 63 33 bc b4 b5 0c 3e e2 19 53 3e
       0.08436345 -0.0109489225 0.13741189 0.20615342
0001f0 29 4f 2c be 3c 93 b7 bd 82 54 b8 3d 59 65 46 be
       -0.16827072 -0.089636296 0.090004936 -0.19374599
000200 e7 2c 42 be a5 26 e0 3d e9 4f 23 bc b5 f6 32 3e
       -0.18962441 0.10944871 -0.009967783 0.17476924
000210 ff b7 c3 bd c9 96 0a 3d 3e b2 e9 3c 2a 7c da 3d
       -0.09556579 0.033835206 0.028527375 0.10668214
000220 95 d9 88 bd 09 75 f8 bd 5d 6d 99 3d 04 7e 16 3e
       -0.066821255 -0.12131698 0.074915625 0.14696509
000230 c6 4a 9e bd 96 82 0e 3e 28 20 39 3e 7d ad 42 bd
       -0.07729106 0.13917002 0.18078673 -0.047528733
000240 4c e7 c9 bc e8 c2 8c bd fb 68 b5 3d 77 99 b7 3d
       -0.024646424 -0.06873113 0.08857914 0.08964818
000250 81 5f 78 bd 37 a4 04 3d 6d 59 9d be e4 65 83 3d
       -0.060637955 0.03238317 -0.3073229 0.064159185
000260 07 5f bb 3c d9 93 61 3d e1 78 03 bd ad ab 0f bd
       0.022872461 0.05507264 -0.0320977 -0.035075832
000270 0e 91 d8 bd 14 54 45 3e 23 9e 21 3c 9b 79 aa 3c
       -0.10574542 0.19270355 0.009864363 0.02080994
000280 d5 b9 94 bd 1b e3 d1 bd b3 6f fb bd 79 59 ac bb
       -0.07262007 -0.10248395 -0.12277164 -0.0052596894
000290 87 34 ff bd 26 14 a4 bd 5c 8c 36 3d 3a 30 8b 3d
       -0.12461191 -0.080116555 0.04456745 0.06796308
0002a0 b4 d2 11 3d f3 46 31 be 89 62 2d be e8 b3 25 3a
       0.035601333 -0.17312221 -0.1693212 0.00063210586
0002b0 76 f6 c1 bd fc f0 b1 3d 00 d4 aa bc 84 f9 0b 3e
       -0.09470837 0.08688542 -0.020853043 0.13669401
0002c0 15 27 be ba 64 08 0a 3e 05 8e 1b bd b2 46 13 be
       -0.0014507497 0.13479763 -0.037977237 -0.14382437
0002d0 72 ac 51 3c 1d 7b b6 3d 88 54 a5 bd 95 84 9a 3d
       0.012797462 0.08910201 -0.08072764 0.07544819
0002e0 54 f3 fa 3d b7 b3 d8 3d 6e 82 e4 3d f1 34 c2 bd
       0.122534424 0.10581153 0.1115769 -0.09482754
0002f0 44 c9 62 3c 1f e9 21 bd 7c cc 88 3d 6e fa 80 3c
       0.013841931 -0.039528962 0.06679627 0.015744414
000300 7f 88 af bd a4 cb 81 bd e8 5d b8 3d 2c a7 82 3d
       -0.085709564 -0.063376695 0.09002286 0.06379542
000310 a6 c7 9d bc f2 06 2b be 57 7e a8 3d 71 ca 65 ba
       -0.019260239 -0.16701868 0.082272224 -0.0008765823
000320 f8 d8 31 3e 24 3c 3b 3e 47 b7 8f bd 53 4c dc 3c
       0.17367923 0.1828466 -0.07017379 0.026891863
000330 18 c9 8d bd f1 37 13 3e 99 95 be 3d 69 79 03 be
       -0.06923121 0.14376809 0.09305877 -0.12839283
000340 69 be 5e 3e 48 31 26 3e 3e 84 b3 bd f2 87 cd 3b
       0.21752323 0.16229737 -0.087654576 0.0062723095
000350 2e 8f 60 3d e6 47 9b bd d1 a1 8e 3d e0 f6 a6 bd
       0.054824047 -0.07582073 0.06964458 -0.081525564
000360 0b 30 84 bd 2d bd ba 3c 99 18 11 bd 27 40 13 3e
       -0.06454476 0.022795284 -0.03542385 0.14379941
000370 50 fc 38 3d 13 12 ce bd b9 6c 33 3d 83 c3 ba 3d
       0.0451625 -0.10062041 0.043804858 0.09119322
000380 cb 21 10 3e 9e 61 3c bd e2 58 b3 3d cc 95 53 3d
       0.14075391 -0.045991533 0.087571874 0.05165653
000390 d3 4a 2e bd b6 54 9b 3d 61 00 36 be 71 b2 57 3d
       -0.042551827 0.07584517 -0.17773582 0.05266041
0003a0 3f 5a 18 3e 58 54 43 bd ec 7f 1e 3d aa 10 07 3e
       0.14878176 -0.04768786 0.038696215 0.1318995
0003b0 b1 50 98 3d 37 12 91 3d 76 19 c1 bc 13 1d f7 bc
       0.07437266 0.07083552 -0.023571711 -0.03016523
0003c0 d5 1d 28 bd f1 be 77 3d f5 10 a4 bc 1e 06 8e 3c
       -0.041044075 0.06048483 -0.020027617 0.017336901
0003d0 a4 6f 1f bc 8f 38 1e 3d cf f5 a7 3c 2a ea 8f 3d
       -0.009731207 0.038628157 0.020502953 0.07027085
0003e0 21 4e 90 bd 08 ef c9 3d 0b 39 0c be 3f e6 e7 3d
       -0.07046152 0.09860045 -0.13693635 0.11323213
0003f0 02 41 c6 3d ab a5 8a bd c2 09 b3 3d 48 d3 de 3d
       0.09680368 -0.0676988 0.087420955 0.108801425

lstm2.weight_hh f4 [204, 51]
000000 d9 9d 49 bd 8b c8 6d 3d ea 5a 9c bd 7a 0d 64 3d
       -0.0492228 0.05805258 -0.07634528 0.055676915
000010 e6 95 bb 3d d7 c3 d5 bd f2 67 be bc 7f 7c f4 bd
       0.0915945 -0.10437744 -0.023242924 -0.11937808
000020 9c de d7 bd 95 69 4b bd 7f 48 29 3e 1c c5 1f 3e
       -0.10540506 -0.049661238 0.16531561 0.15602535
000030 d1 c4 12 3e e4 42 a9 3d 69 37 2d bd fc 4e ee bd
       0.14332892 0.082647115 -0.04228917 -0.11636159
000040 c3 f1 a7 bd e8 f4 bf 3d 69 03 25 3d 21 51 ac bd
       -0.08200409 0.09372884 0.040286455 -0.084139116
000050 07 7a c5 3d 75 14 0b be 8a a6 27 bd e3 ec 34 3d
       0.096424155 -0.13582022 -0.04093031 0.044171225
000060 83 06 cf 3d 05 c7 14 be 58 af ed 3c f7 f1 ec bc
       0.10108664 -0.14529045 0.029014274 -0.028923972
000070 9a a2 c1 bc b3 82 40 bc 74 ab 17 be 5a e6 6a 3d
       -0.023637105 -0.011749911 -0.14811498 0.057348587
000080 69 e1 f1 bd f4 12 65 3d 12 06 1e be 2d 55 e7 bd
       -0.11810572 0.05592628 -0.15432003 -0.11295543
000090 1d 56 5d 3d 56 30 a8 bd b7 f0 c4 3d c5 41 ed bc
       0.054037202 -0.08212344 0.09616225 -0.028962025
0000a0 51 96 30 3e 93 71 77 bc 22 8b b7 3d a2 e1 f4 bc
       0.17244841 -0.015102762 0.08962084 -0.029892746
0000b0 d6 46 35 3e 9f ca 44 bd ff 36 52 3c d1 40 13 be
       0.17702803 -0.048044797 0.012830495 -0.14380194
0000c0 79 41 de 3c 6c 33 ca 3d a5 d0 2d bd ad e8 43 be
       0.02713083 0.09873089 -0.042435307 -0.19131728
0000d0 db 68 b3 3d 96 0c 60 3d 1b ee 9c 3d 30 55 e9 3c
       0.08760234 0.054699503 0.076626025 0.028483003
0000e0 a0 2a e1 3d 73 27 d0 bd ab 10 43 3d cb cc ee bd
       0.10994458 -0.10163774 0.047623318 -0.11660155
0000f0 38 14 c6 3c d1 05 ae 3d b6 cf 27 3e 30 cd d0 3d
       0.024179563 0.08497203 0.16387829 0.101953864
000100 46 37 91 3d 06 db 5e 3d 38 39 9a bd 44 a1 af bc
       0.07090621 0.054408096 -0.07530445 -0.021439202
000110 55 15 4f 3d 13 be 64 bd cc 9a b8 3d 6a f4 ed bd
       0.050557453 -0.05584533 0.090139 -0.11618884
000120 95 60 a9 bd 6c 4d 10 bd ff 53 33 bd 0c df 35 bd
       -0.08270375 -0.035230085 -0.043781277 -0.044402167
000130 00 d3 b4 bd f1 72 6c 3b 60 68 89 bd 57 26 8e 3d
       -0.088293076 0.0036079253 -0.06709361 0.069409065
000140 0f db db 3c b7 bf 25 be 7c a7 89 bd c9 77 5a 3a
       0.026837854 -0.16186415 -0.06721398 0.00083338894
000150 1b 4a 25 bd c6 6e 92 3d d2 f3 65 bd e5 fc 1b be
       -0.040353876 0.071500346 -0.05614073 -0.1523319
000160 23 cc 0b 3e 2e 26 44 be b0 5a fb bd 12 37 11 3e
       0.1365209 -0.1915519 -0.12273157 0.14181164
000170 59 6b b7 3d 54 53 07 3e 1e a9 98 bc 7c 70 98 bd
       0.08956022 0.13215381 -0.018635329 -0.0744333
000180 1a 7c 94 3d 17 41 44 be f7 ae 4c be c5 4a 9e 3d
       0.07250233 -0.19165455 -0.19988619 0.07729105
000190 45 88 e5 bc 8c 6b 25 bd 8c e1 0c 3e d3 82 f9 3c
       -0.02801908 -0.040385768 0.13757914 0.03045789
0001a0 8d 9e c5 bd d1 71 ea 3d ef 79 72 3e 20 7d c8 b8
       -0.09649382 0.1144749 0.23679326 -9.5600495e-05
0001b0 91 b5 b0 3d 3a ea a2 bb 66 4d c2 38 0d c5 b3 3d
       0.08628381 -0.0049717696 9.2650575e-05 0.08777819
0001c0 16 5a 15 3e 14 02 32 3e da c6 d8 3d 69 3c 2a 3e
       0.14585146 0.17383605 0.10584803 0.16624607
0001d0 7f ae a7 3d ae 5d 31 bd da aa ab bd 3b 98 fe 3c
       0.08187579 -0.04330223 -0.08382197 0.031078449
0001e0 75 52 07 3e 6b 41 4f be b8 00 b2 bd d1 97 83 3c
       0.13215049 -0.20239799 -0.08691543 0.016063603
0001f0 5c da 5a 3d 2c 8c d4 bd db 05 01 3e 2f 8a 03 3e
       0.0534309 -0.10378298 0.1259989 0.12845682
000200 f8 7f ec bc ef ea d6 3c 74 3b e2 bc 11 e1 45 bd
       -0.028869614 0.026235072 -0.02761624 -0.048310343
000210 2c 1c a4 3d fd e5 10 3e b0 ca d5 3d 9b 47 ed 3d
       0.08013186 0.14150234 0.1043905 0.11585923
000220 ef c2 f3 bd f8 5e 6a bd c4 c4 8c 3d cd 23 32 3e
       -0.11902415 -0.057219476 0.068734676 0.1739647
000230 cb 5c 58 bd ff 56 f0 3b e7 35 e2 bd a6 f1 00 3e
       -0.05282287 0.0073345895 -0.11045437 0.12592182
000240 2b 8e e0 3d 45 5f 9b be 17 9a 16 3e 70 f7 14 3c
       0.109646164 -0.30346122 0.14707218 0.009092197
000250 03 9f 47 bd 86 6b 14 be 77 bb 53 3d 80 6d c1 bd
       -0.04873563 -0.14494142 0.051692452 -0.094447136
000260 0c 80 a5 3d b9 7e b3 3d aa f8 e3 bd 91 e2 ac 3d
       0.08081064 0.08764405 -0.11131413 0.084416516
000270 a2 81 11 bc ef d2 f1 3b ba 76 ee 3d 36 8d 14 be
       -0.0088810045 0.0073798816 0.11643739 -0.14506993
000280 93 21 8f 3d 8e b7 50 3a bd 6e 61 3b 57 e9 0a 3d
       0.06988826 0.0007961922 0.003439828 0.033913936
000290 ff 2b e5 3d 93 bd b2 bd d5 d6 f2 3d 21 fa 27 bd
       0.11190032 -0.08727565 0.11857382 -0.041010026
0002a0 22 c9 5c 3c 99 33 01 3e 62 f8 12 bd 4b 91 6a bd
       0.013475688 0.12617339 -0.035881408 -0.05726747
0002b0 ae 09 05 3e 02 b0 4e bd b1 68 fe bc 08 73 56 3d
       0.12991974 -0.050460823 -0.03105578 0.052355796
0002c0 cc e9 c2 3d 12 e4 0a 3d fa 35 42 be 6b 66 a3 bd
       0.095172495 0.03390891 -0.18965903 -0.07978519
0002d0 1f ce e4 bd ef 3f 30 be e4 96 0e 3e f6 35 f9 bd
       -0.11172127 -0.17211889 0.13924748 -0.12168495
0002e0 5c d7 c3 bd b5 c8 8a 3d f2 b3 16 3e 72 cd e3 bc
       -0.09562561 0.06776563 0.14717081 -0.027807925
0002f0 d9 34 da bd 0a e4 c5 bd 5b 79 93 bd c3 5f 8b bd
       -0.10654611 -0.096626356 -0.07200881 -0.068053745
000300 e0 47 bb 3c a8 6c a2 3d f7 d4 0a 3c fd 9c aa bd
       0.022861421 0.07930881 0.008473626 -0.083307244
000310 dd 90 dc bd 6b ba ae 3d 69 8e eb bd e9 4c ba bd
       -0.10769818 0.0853165 -0.11501772 -0.09096701
000320 78 52 ce bd 23 f3 b8 bd 76 eb 23 bd c1 4e c3 3d
       -0.100743234 -0.0903075 -0.040019475 0.095365055
000330 63 be b4 bc 5c 44 8b bd dd a6 60 bd c7 15 1f 3c
       -0.02206344 -0.06800148 -0.054846633 0.009709782
000340 32 95 b1 3d 7a fd 3a 3a 67 28 d3 bd 37 3c b0 bd
       0.08671035 0.0007133108 -0.103104405 -0.08605235
000350 b5 11 ab bc 4c 75 eb 3d f6 1c 05 3d 21 a6 3c 3d
       -0.020882467 0.11496982 0.032498322 0.04605687
000360 5e 23 a9 bd 63 da 80 bd d6 ac 57 bd d6 f6 12 bd
       -0.08258699 -0.06291654 -0.052655064 -0.035879932
000370 07 d7 8a bd 90 e1 0c be 05 c0 b5 3d d4 56 06 be
       -0.067792945 -0.1375792 0.088745154 -0.1311906
000380 12 b3 98 3c 13 51 fe 3d 25 16 8c 3c 5d 86 69 3d
       0.018640075 0.124178074 0.017100403 0.057012904
000390 a5 a4 bb bd 27 f6 7c bb 95 c7 5c bd 40 51 03 be
       -0.09162263 -0.0038598867 -0.053901274 -0.12823963
0003a0 53 41 b5 bd 08 c4 85 bd 63 b4 8a bc f3 57 d7 bd
       -0.0885035 -0.065315306 -0.016931718 -0.10514822
0003b0 49 80 17 bc 70 2b 90 3d 2a 44 94 3d e3 7c 9a bc
       -0.009246894 0.07039535 0.07239564 -0.018858379
0003c0 0b 76 21 be e8 20 84 bd 04 51 4c be ae 34 a3 3d
       -0.15767686 -0.06451589 -0.1995278 0.07969032
0003d0 bc 5a b1 bd 35 41 0b 3e 54 c0 ae 3d ab 02 ad bc
       -0.08659884 0.13599093 0.085327774 -0.021119436
0003e0 82 fc ab 3d 63 14 8e bd e3 e0 07 be 21 19 40 3d
       0.083977714 -0.06937482 -0.13269381 0.046898965
0003f0 e0 04 bf bd b2 8f e8 bd b9 4c db 3d f9 a1 14 be
       -0.09327102 -0.11355533 0.10707993 -0.14514913

lstm2.bias_ih f4 [204]
000000 b3 50 8d bc d3 0d d8 3a f5 21 8c 3c b2 fa 34 bd
       -0.017250394 0.0016483612 0.017106036 -0.044184394
000010 36 c6 73 3d ba 88 29 bd 6e 49 fb 3d c0 ae 7e bd
       0.0595152 -0.04139016 0.12269865 -0.062178373
000020 be 09 9d bd ef 03 a3 bd b1 da 3a 3b 16 df be 3d
       -0.07667874 -0.07959735 0.0028511698 0.09319894
000030 80 70 40 3e db 05 3a 3c 86 0e 05 3e ef d0 4e bd
       0.18792915 0.011353935 0.12993822 -0.050492223
000040 90 b9 88 bd 33 26 91 3d 7c de 84 3d 7e eb bf bb
       -0.06676018 0.07087364 0.06487748 -0.0058569303
000050 e5 58 83 3d 3b c1 87 3d 57 c7 30 3e 37 6a 01 3e
       0.0641344 0.06628653 0.17263542 0.12638174
000060 39 e7 5a 3d 2e 3a be bd ea 1b 9d 3b 41 76 8a bd
       0.053443167 -0.09288441 0.0047945874 -0.067608364
000070 dc b7 4c 3d 0f 98 ae 3c bd e1 69 3c f6 7e 3f bd
       0.04998003 0.021312742 0.014275012 -0.04675194
000080 51 46 c3 3d 31 3c e8 3d 70 01 b5 3c 09 b0 c9 3c
       0.09534896 0.113396056 0.022095412 0.024620073
000090 45 67 de 3d 72 4b 0e 3e 6f 1c c5 3d 0b f4 d8 3d
       0.10859541 0.13895968 0.09624564 0.105934225
0000a0 3c 19 95 3d f7 f9 b4 3d 85 ad 83 3d 20 b4 da 3c
       0.07280204 0.088367395 0.064295806 0.026697218
0000b0 97 92 20 bd fa 4c 26 3e cb 13 0e 3e 18 1a dd bc
       -0.0392023 0.16240302 0.13874738 -0.026989982
0000c0 3c 36 70 3d 53 13 60 bd 04 48 53 3e 8f f9 5d 3c
       0.058645472 -0.05470593 0.2063294 0.013548269
0000d0 88 a1 58 bd 4d 6b aa bd 2f 2f be 3d e3 1e 7f bc
       -0.052888423 -0.08321247 0.09286343 -0.015571329
0000e0 35 91 86 3c ac e4 19 3e b5 e3 06 bd e1 16 a7 bd
       0.016426662 0.15028638 -0.032932002 -0.08158661
0000f0 7c 80 8a 3c 63 d7 04 3d c1 8a 87 bd 49 c3 69 3d
       0.01690697 0.03243197 -0.06618262 0.057071004
000100 ee c3 ba bd a3 d2 90 bd e2 0b a4 bd 4f c7 a7 bc
       -0.09119402 -0.07071426 -0.08010079 -0.02048078
000110 e4 aa 00 3c ca a2 2c bd 5a 1a 5f bd 50 f4 22 bd
       0.0078532435 -0.042147435 -0.05446849 -0.039783776
000120 5a 15 31 3d 7b c8 b1 3a 30 60 04 be 29 77 d9 bd
       0.043233253 0.0013563776 -0.12927318 -0.10618431
000130 96 9e ce 3d f0 80 f0 3c 90 76 a5 3d e9 83 1c 3c
       0.100888416 0.029358357 0.080792546 0.009552934
000140 96 e3 14 be 55 b0 0b be 15 99 e5 3d a1 5d cf bc
       -0.14539942 -0.13641484 0.11210839 -0.0253132
000150 cb 31 29 bd 41 2d 00 be df a4 76 3d 8f a8 84 3c
       -0.041307252 -0.12517263 0.060215827 0.016193656
000160 f2 34 d0 bd 13 3c c2 3c 24 ee 1d bd 0e a8 26 bb
       -0.101663485 0.023710286 -0.038557187 -0.0025429758
000170 d0 bf 49 bd 27 6f c2 bc 8e d5 a0 bc 8c be ab bd
       -0.049255192 -0.023734642 -0.01963308 -0.08385953
000180 1d 98 c2 bd a2 d6 fd bd 04 fe 10 3e 3e a7 7f bd
       -0.095016696 -0.123944536 0.141594 -0.062415354
000190 70 7d e6 3d 0f e3 e9 3d b0 9b 97 bd 61 5f f2 3d
       0.11254394 0.11420261 -0.07402742 0.11834598
0001a0 3c 86 41 3d d8 e9 64 3d fe a5 18 3e 6c d4 30 3e
       0.047247157 0.055887073 0.14907071 0.17268533
0001b0 7c 18 13 bd 2e fb 4f 3e fa 33 ff bd 10 2e 9e 3d
       -0.035912022 0.20310661 -0.124610856 0.077236295
0001c0 cc c1 f1 3d 8e 7f 27 3e fd 06 95 3c 4e 30 4d 3e
       0.11804542 0.16357252 0.018191809 0.20037958
0001d0 ad 55 16 3e 6f 88 0a be b5 c1 3f 3e de 77 24 be
       0.1468112 -0.13528608 0.18726237 -0.1606135
0001e0 7c ea 2b 3e c7 e8 05 be 1d 0b 38 bd ce 74 1c be
       0.16788667 -0.13077079 -0.044932473 -0.15278932
0001f0 87 36 e4 3c dd ef c9 bd 95 f9 12 bd e8 b4 b0 bd
       0.027858032 -0.098602034 -0.03588255 -0.08628255
000200 8b 4d 1b be a7 10 4b bd 24 7c 58 bd ed 2c 2d be
       -0.15166299 -0.049576428 -0.052852765 -0.16911669
000210 76 48 cd bd ea 38 50 bd a7 89 3f 3e 83 4a ee 3d
       -0.100235865 -0.050835527 0.18704854 0.11635306
000220 9e ea 97 3c 07 7b 43 3d f1 df 08 3d 7c f2 94 3d
       0.018544491 0.04772475 0.033416692 0.07272813
000230 9a dd f3 bd 80 b3 32 be 41 3f ac bd 99 5e 87 3d
       -0.119075015 -0.17451286 -0.08410502 0.0660984
000240 82 ab 23 bb 7d c6 00 be 12 78 e4 3d b6 1d e6 3d
       -0.0024974053 -0.12575717 0.11155714 0.11236136
000250 3b 81 9e ba 1f a8 02 3b 9c 23 f1 bd 38 c6 f4 bd
       -0.0012092957 0.0019936634 -0.1177437 -0.1195187
000260 15 74 92 3d fd b8 35 3e d3 df cd 3d d7 b0 12 bd
       0.07151047 0.17746349 0.10052457 -0.03581318
000270 78 89 9b 3c 04 5f d8 3c a8 88 0f bc 6a 63 8b 3c
       0.018986449 0.026412494 -0.008760609 0.017015178
000280 cf 80 d7 3c 0f 9c 92 3d 45 01 ee 3c 46 b0 5e 3e
       0.026306538 0.07158672 0.02905334 0.2174693
000290 8c 1b de bc 92 25 d5 3d 7f 65 3d 3e 67 ea c7 3c
       -0.027112745 0.104075566 0.18495749 0.024403764
0002a0 ce 6b 7a bd 83 bf f8 3c 46 b9 90 3d 37 c3 54 bc
       -0.061137967 0.030364757 0.07066588 -0.012985996
0002b0 e7 76 07 3e d5 18 17 3d e5 33 c2 bc 5a c7 9f 3d
       0.13228951 0.036888916 -0.023706386 0.07801695
0002c0 3d 54 f8 3b ea e1 48 3e d6 44 c9 bd df f1 47 bd
       0.0075784014 0.1961743 -0.098275825 -0.04881465
0002d0 64 0b 29 3d 5a e2 9f 3d d7 d7 d3 3c 85 dc 10 ba
       0.04127063 0.07806845 0.025859756 -0.0005526024
0002e0 ca 9c aa bc 92 fb 0e 3e 7e 4d 3e 3e ce 2d b4 bc
       -0.020826716 0.13963154 0.18584248 -0.021994498
0002f0 f6 6a 95 3d 3a 6d 5c bd b2 30 30 3e a2 3b 36 bd
       0.07295792 -0.053815104 0.17206076 -0.044490464
000300 a6 09 f6 bb 53 29 ae bc cf 6a c0 3d 19 48 bc 3d
       -0.0075084744 -0.02125994 0.09395372 0.09193439
000310 67 5a 6a bd 14 2b 9f 3c 93 99 14 3e 36 cd 99 3d
       -0.05721512 0.019429721 0.14511709 0.07509844
000320 9c 19 50 bd fb b3 ef 3d b4 f8 18 3e 71 03 86 3d
       -0.050805673 0.117042504 0.14938623 0.06543625

lstm2.bias_hh f4 [204]
000000 79 c3 3c 3e 6c 02 35 3e cb 4f 1e bd 47 71 f0 bb
       0.18433942 0.17676705 -0.038650315 -0.0073377225
000010 91 79 4f 3e de 19 15 3d 4d 5a 40 3e 95 9e fa bc
       0.20261218 0.036401622 0.18784447 -0.030593196
000020 1e e0 32 3e bc af b5 3d fc 01 f6 bc ac 7d 8f bd
       0.17468306 0.08871409 -0.030030243 -0.07006392
000030 5d a9 b0 bc 1e 61 5b 3e 80 1f ac 3d 95 65 e1 3d
       -0.021565134 0.21423766 0.08404446 0.11005703
000040 45 88 a3 bb 54 f9 e1 bd 3f e4 4a 3e e8 f0 2c bc
       -0.00499061 -0.11033884 0.19813631 -0.010555483
000050 ad 85 01 3d 78 f7 56 3d dd ba 3a 3e 56 f9 05 3e
       0.031621624 0.0524821 0.18235345 0.13083395
000060 78 6d 4f 3d 7c 5c 11 3e 6b d8 2c 3e d9 4f f0 3c
       0.050641507 0.14195436 0.16879432 0.02933495
000070 16 32 46 3e 7c 30 61 bc f2 83 a2 bd 15 3e 38 3e
       0.19355044 -0.01374447 -0.07935323 0.17992432
000080 eb bc 06 3d 8b c2 32 3d 08 67 59 bd 6a 7f 93 3c
       0.03289501 0.043642562 -0.053076774 0.018005092
000090 37 3e 06 3b b1 d1 69 3d 93 f6 96 bd ce 9f 21 3e
       0.002048386 0.057084743 -0.07371249 0.15783617
0000a0 db e0 af 3d f9 b7 42 3d 4f 13 2f bd 4b 7f 80 bd
       0.0858781 0.04753873 -0.042743023 -0.06274279
0000b0 66 c5 ad bb a0 3a 1f 3e 43 34 28 3e 82 76 2b 3e
       -0.0053030727 0.15549707 0.16426186 0.16744426
0000c0 88 57 b1 bc 71 bb ea bc 9e 84 da 3d 47 7a ee bd
       -0.021648183 -0.028653832 0.10669826 -0.11644416
0000d0 15 9d d7 3d 23 ac cc 3d d6 ef 94 3d aa 9f 1b 3e
       0.10528008 0.0999377 0.072723076 0.15197626
0000e0 41 14 a7 bd 91 48 a3 bc 2c 75 42 3d f0 ea 03 bd
       -0.0815816 -0.019932063 0.047475025 -0.032206476
0000f0 e5 d9 12 bd e5 96 ff 3d bb 85 b9 bd 87 64 85 3d
       -0.03585233 0.12479953 -0.0905871 0.06513315
000100 a0 4c 02 3d 89 ad 94 3d 56 2a ca bd 7f fd e0 3d
       0.031811357 0.07259662 -0.09871356 0.109858505
000110 9a 53 f6 3d 2b 08 c6 bd 12 8c 71 bd aa 99 8d 3d
       0.120276645 -0.09669527 -0.058971472 0.06914075
000120 37 97 8e 3d c6 3e 8a 3d ca f7 e3 3c f5 fe 17 bd
       0.06962436 0.06750254 0.027828116 -0.03710838
000130 08 ca a5 3d c9 7b 2c 3d 92 75 a9 bd f1 f2 a1 bd
       0.08095175 0.04211024 -0.08274378 -0.079076655
000140 df 24 fb bd 4b 6b d3 3c 43 37 4d 3d c6 fe 53 bc
       -0.12262892 0.025807997 0.05010153 -0.012939161
000150 bc 2e b9 3d 31 eb 92 3d c4 71 01 3d 4a da ef bd
       0.09042117 0.071737655 0.031602636 -0.11711557
000160 7d 40 18 3d f3 ec d0 3c e0 4b 6d 3d df 22 27 3e
       0.037170876 0.025503611 0.05793369 0.16321896
000170 19 6a fa 3d e3 d0 e1 3b 43 f5 d8 bd a1 78 28 3e
       0.12227268 0.0068913563 -0.10593655 0.16452266
000180 ed 7b a2 bd 59 a0 15 3e 29 29 e4 3c e1 b3 a3 bc
       -0.07933793 0.14611949 0.027851658 -0.019983234
000190 47 45 e0 3c fb 95 6f 3d 38 15 b2 bd 05 64 0d 3e
       0.027376784 0.058492642 -0.086954534 0.13807686
0001a0 cf e7 b1 3d 00 cd 33 3e bc c9 5a 3d cc 8c a5 3d
       0.08686792 0.1755867 0.053415045 0.080834955
0001b0 f4 9c 17 be db 4d f5 bc 48 d2 c3 bd a1 3f 98 3b
       -0.14805967 -0.029944351 -0.09561592 0.004646257
0001c0 81 d4 39 3e 8a 9a 4b 3d 2b 17 1e 3e 42 00 25 bd
       0.1814747 0.049707927 0.15438525 -0.04028345
0001d0 bc d1 00 3d f9 0c 69 bc 62 24 cb bc 04 19 9a 3b
       0.03145002 -0.014224284 -0.024797622 0.004702689
0001e0 7b e7 33 3d 04 62 79 bd 31 6a e0 bd 15 0f 2d 3d
       0.04392193 -0.06088449 -0.109577544 0.04225071
0001f0 15 6d 1e be fd 0f 50 3d 87 91 f8 3d b9 59 8b bd
       -0.15471299 0.050796498 0.12137132 -0.068042226
000200 6b e4 06 3d fe 68 ad bd 64 da 14 be 12 04 a2 ba
       0.03293268 -0.08467291 -0.14536434 -0.0012360832
000210 9a c5 df bd af 82 d6 3d 4a fb 03 3e 16 5b 44 3d
       -0.109263614 0.10474145 0.12888828 0.04793843
000220 72 4a 2b bc d2 09 05 bd 0e 63 6b bc 66 c1 b5 3d
       -0.010454761 -0.03248007 -0.014366878 0.088747784
000230 f3 8d 0c be d9 0a de bd 22 6f 8b 3d 0c 96 14 3d
       -0.13726024 -0.10841913 0.06808306 0.03627591
000240 9c 6a 12 3e 87 98 bf bd 89 a3 2d 3d ac 9c 2a bd
       0.14298481 -0.09355264 0.042392287 -0.04165332
000250 5a 6d da bd ab c8 7c be 12 d1 b2 bd c0 89 ab 3c
       -0.106653884 -0.24685924 -0.08731283 0.020939708
000260 4d 7d d8 3d f1 3d 9c 3c 0b 1f 08 3e b5 c0 e4 3d
       0.10570774 0.019072505 0.13293092 0.111695684
000270 ed a5 dd 3c fc 39 23 3d 52 10 99 3b 33 8b 1c 3d
       0.027056659 0.03985022 0.004671135 0.03821869
000280 1c 2d e3 3c f3 a5 af 3d 98 54 3b 3c d3 ac 1f bd
       0.02773147 0.08576574 0.011433743 -0.038983177
000290 8c 28 11 3e 4f 0b 5a 3e 43 ac 46 3e 2f 76 25 3d
       0.14175624 0.21293376 0.1940165 0.04039591
0002a0 c8 e5 03 3e 48 22 a5 bd ea eb 07 3e b2 a6 5b bd
       0.12880623 -0.08063179 0.13273588 -0.05362577
0002b0 90 31 15 bd 04 3c c4 bc 6d f4 f1 3d 48 db ca 3d
       -0.03642422 -0.023954399 0.11814199 0.09905106
0002c0 6a 3c d7 3d 07 24 07 3e 51 4e f4 3d 4d ff 1e bb
       0.1050957 0.13197337 0.11929 -0.0024261058
0002d0 15 44 c8 bd 51 4b 3b 3e 20 02 a9 bd f8 cd 84 3d
       -0.097786106 0.1829045 -0.082523584 0.06484598
0002e0 91 82 33 bd 78 32 82 bd a4 69 8e bd 08 f6 20 3e
       -0.04382569 -0.063572824 -0.06953743 0.15718853
0002f0 02 02 5c bd 20 49 3f 3e 0d 0c 33 bd 7c e1 47 bd
       -0.053712852 0.18680239 -0.043712664 -0.048799023
000300 24 24 44 3e 9b 1f df 3c ba e1 ce 3b 69 92 21 3c
       0.19154412 0.02723675 0.00631353 0.009861567
000310 51 ac 53 bd 8d b2 ae 3d f8 07 d3 3c 88 26 06 3e
       -0.051678006 0.085301496 0.025760636 0.13100636
000320 4e fe 34 3e 9c 2e 34 bc d9 b2 1c 3e 9f 1d a6 3d
       0.17675135 -0.010997441 0.153026 0.081111185
